node {
  name: "zeros/shape_as_tensor"
  op: "Const"
  attr {
    key: "_output_shapes"
    value {
      list {
        shape {
          dim {
          }
        }
      }
    }
  }
  attr {
    key: "dtype"
    value {
      type: DT_INT32
    }
  }
  attr {
    key: "value"
    value {
      tensor {
        dtype: DT_INT32
        tensor_shape {
          dim {
          }
        }
      }
    }
  }
}
node {
  name: "zeros/Const"
  op: "Const"
  attr {
    key: "_output_shapes"
    value {
      list {
        shape {
        }
      }
    }
  }
  attr {
    key: "dtype"
    value {
      type: DT_INT64
    }
  }
  attr {
    key: "value"
    value {
      tensor {
        dtype: DT_INT64
        tensor_shape {
        }
        int64_val: 0
      }
    }
  }
}
node {
  name: "zeros"
  op: "Fill"
  input: "zeros/shape_as_tensor"
  input: "zeros/Const"
  attr {
    key: "T"
    value {
      type: DT_INT64
    }
  }
  attr {
    key: "_output_shapes"
    value {
      list {
        shape {
        }
      }
    }
  }
  attr {
    key: "index_type"
    value {
      type: DT_INT32
    }
  }
}
node {
  name: "parallel_read/filenames/Const"
  op: "Const"
  attr {
    key: "_output_shapes"
    value {
      list {
        shape {
          dim {
            size: 1
          }
        }
      }
    }
  }
  attr {
    key: "dtype"
    value {
      type: DT_STRING
    }
  }
  attr {
    key: "value"
    value {
      tensor {
        dtype: DT_STRING
        tensor_shape {
          dim {
            size: 1
          }
        }
        string_val: "data\\font_train.tfrecord"
      }
    }
  }
}
node {
  name: "parallel_read/filenames/Size"
  op: "Const"
  attr {
    key: "_output_shapes"
    value {
      list {
        shape {
        }
      }
    }
  }
  attr {
    key: "dtype"
    value {
      type: DT_INT32
    }
  }
  attr {
    key: "value"
    value {
      tensor {
        dtype: DT_INT32
        tensor_shape {
        }
        int_val: 1
      }
    }
  }
}
node {
  name: "parallel_read/filenames/Greater/y"
  op: "Const"
  attr {
    key: "_output_shapes"
    value {
      list {
        shape {
        }
      }
    }
  }
  attr {
    key: "dtype"
    value {
      type: DT_INT32
    }
  }
  attr {
    key: "value"
    value {
      tensor {
        dtype: DT_INT32
        tensor_shape {
        }
        int_val: 0
      }
    }
  }
}
node {
  name: "parallel_read/filenames/Greater"
  op: "Greater"
  input: "parallel_read/filenames/Size"
  input: "parallel_read/filenames/Greater/y"
  attr {
    key: "T"
    value {
      type: DT_INT32
    }
  }
  attr {
    key: "_output_shapes"
    value {
      list {
        shape {
        }
      }
    }
  }
}
node {
  name: "parallel_read/filenames/Assert/Const"
  op: "Const"
  attr {
    key: "_output_shapes"
    value {
      list {
        shape {
        }
      }
    }
  }
  attr {
    key: "dtype"
    value {
      type: DT_STRING
    }
  }
  attr {
    key: "value"
    value {
      tensor {
        dtype: DT_STRING
        tensor_shape {
        }
        string_val: "string_input_producer requires a non-null input tensor"
      }
    }
  }
}
node {
  name: "parallel_read/filenames/Assert/Assert/data_0"
  op: "Const"
  attr {
    key: "_output_shapes"
    value {
      list {
        shape {
        }
      }
    }
  }
  attr {
    key: "dtype"
    value {
      type: DT_STRING
    }
  }
  attr {
    key: "value"
    value {
      tensor {
        dtype: DT_STRING
        tensor_shape {
        }
        string_val: "string_input_producer requires a non-null input tensor"
      }
    }
  }
}
node {
  name: "parallel_read/filenames/Assert/Assert"
  op: "Assert"
  input: "parallel_read/filenames/Greater"
  input: "parallel_read/filenames/Assert/Assert/data_0"
  attr {
    key: "T"
    value {
      list {
        type: DT_STRING
      }
    }
  }
  attr {
    key: "summarize"
    value {
      i: 3
    }
  }
}
node {
  name: "parallel_read/filenames/Identity"
  op: "Identity"
  input: "parallel_read/filenames/Const"
  input: "^parallel_read/filenames/Assert/Assert"
  attr {
    key: "T"
    value {
      type: DT_STRING
    }
  }
  attr {
    key: "_output_shapes"
    value {
      list {
        shape {
          dim {
            size: 1
          }
        }
      }
    }
  }
}
node {
  name: "parallel_read/filenames/RandomShuffle"
  op: "RandomShuffle"
  input: "parallel_read/filenames/Identity"
  attr {
    key: "T"
    value {
      type: DT_STRING
    }
  }
  attr {
    key: "_output_shapes"
    value {
      list {
        shape {
          dim {
            size: 1
          }
        }
      }
    }
  }
  attr {
    key: "seed"
    value {
      i: 0
    }
  }
  attr {
    key: "seed2"
    value {
      i: 0
    }
  }
}
node {
  name: "parallel_read/filenames"
  op: "FIFOQueueV2"
  attr {
    key: "_output_shapes"
    value {
      list {
        shape {
        }
      }
    }
  }
  attr {
    key: "capacity"
    value {
      i: 32
    }
  }
  attr {
    key: "component_types"
    value {
      list {
        type: DT_STRING
      }
    }
  }
  attr {
    key: "container"
    value {
      s: ""
    }
  }
  attr {
    key: "shapes"
    value {
      list {
        shape {
        }
      }
    }
  }
  attr {
    key: "shared_name"
    value {
      s: ""
    }
  }
}
node {
  name: "parallel_read/filenames/filenames_EnqueueMany"
  op: "QueueEnqueueManyV2"
  input: "parallel_read/filenames"
  input: "parallel_read/filenames/RandomShuffle"
  attr {
    key: "Tcomponents"
    value {
      list {
        type: DT_STRING
      }
    }
  }
  attr {
    key: "timeout_ms"
    value {
      i: -1
    }
  }
}
node {
  name: "parallel_read/filenames/filenames_Close"
  op: "QueueCloseV2"
  input: "parallel_read/filenames"
  attr {
    key: "cancel_pending_enqueues"
    value {
      b: false
    }
  }
}
node {
  name: "parallel_read/filenames/filenames_Close_1"
  op: "QueueCloseV2"
  input: "parallel_read/filenames"
  attr {
    key: "cancel_pending_enqueues"
    value {
      b: true
    }
  }
}
node {
  name: "parallel_read/filenames/filenames_Size"
  op: "QueueSizeV2"
  input: "parallel_read/filenames"
  attr {
    key: "_output_shapes"
    value {
      list {
        shape {
        }
      }
    }
  }
}
node {
  name: "parallel_read/filenames/ToFloat"
  op: "Cast"
  input: "parallel_read/filenames/filenames_Size"
  attr {
    key: "DstT"
    value {
      type: DT_FLOAT
    }
  }
  attr {
    key: "SrcT"
    value {
      type: DT_INT32
    }
  }
  attr {
    key: "_output_shapes"
    value {
      list {
        shape {
        }
      }
    }
  }
}
node {
  name: "parallel_read/filenames/mul/y"
  op: "Const"
  attr {
    key: "_output_shapes"
    value {
      list {
        shape {
        }
      }
    }
  }
  attr {
    key: "dtype"
    value {
      type: DT_FLOAT
    }
  }
  attr {
    key: "value"
    value {
      tensor {
        dtype: DT_FLOAT
        tensor_shape {
        }
        float_val: 0.03125
      }
    }
  }
}
node {
  name: "parallel_read/filenames/mul"
  op: "Mul"
  input: "parallel_read/filenames/ToFloat"
  input: "parallel_read/filenames/mul/y"
  attr {
    key: "T"
    value {
      type: DT_FLOAT
    }
  }
  attr {
    key: "_output_shapes"
    value {
      list {
        shape {
        }
      }
    }
  }
}
node {
  name: "parallel_read/filenames/fraction_of_32_full/tags"
  op: "Const"
  attr {
    key: "_output_shapes"
    value {
      list {
        shape {
        }
      }
    }
  }
  attr {
    key: "dtype"
    value {
      type: DT_STRING
    }
  }
  attr {
    key: "value"
    value {
      tensor {
        dtype: DT_STRING
        tensor_shape {
        }
        string_val: "parallel_read/filenames/fraction_of_32_full"
      }
    }
  }
}
node {
  name: "parallel_read/filenames/fraction_of_32_full"
  op: "ScalarSummary"
  input: "parallel_read/filenames/fraction_of_32_full/tags"
  input: "parallel_read/filenames/mul"
  attr {
    key: "T"
    value {
      type: DT_FLOAT
    }
  }
  attr {
    key: "_output_shapes"
    value {
      list {
        shape {
        }
      }
    }
  }
}
node {
  name: "parallel_read/common_queue"
  op: "RandomShuffleQueueV2"
  attr {
    key: "_output_shapes"
    value {
      list {
        shape {
        }
      }
    }
  }
  attr {
    key: "capacity"
    value {
      i: 32
    }
  }
  attr {
    key: "component_types"
    value {
      list {
        type: DT_STRING
        type: DT_STRING
      }
    }
  }
  attr {
    key: "container"
    value {
      s: ""
    }
  }
  attr {
    key: "min_after_dequeue"
    value {
      i: 16
    }
  }
  attr {
    key: "seed"
    value {
      i: 0
    }
  }
  attr {
    key: "seed2"
    value {
      i: 0
    }
  }
  attr {
    key: "shapes"
    value {
      list {
      }
    }
  }
  attr {
    key: "shared_name"
    value {
      s: ""
    }
  }
}
node {
  name: "parallel_read/common_queue_Size"
  op: "QueueSizeV2"
  input: "parallel_read/common_queue"
  attr {
    key: "_output_shapes"
    value {
      list {
        shape {
        }
      }
    }
  }
}
node {
  name: "parallel_read/ToFloat"
  op: "Cast"
  input: "parallel_read/common_queue_Size"
  attr {
    key: "DstT"
    value {
      type: DT_FLOAT
    }
  }
  attr {
    key: "SrcT"
    value {
      type: DT_INT32
    }
  }
  attr {
    key: "_output_shapes"
    value {
      list {
        shape {
        }
      }
    }
  }
}
node {
  name: "parallel_read/mul/y"
  op: "Const"
  attr {
    key: "_output_shapes"
    value {
      list {
        shape {
        }
      }
    }
  }
  attr {
    key: "dtype"
    value {
      type: DT_FLOAT
    }
  }
  attr {
    key: "value"
    value {
      tensor {
        dtype: DT_FLOAT
        tensor_shape {
        }
        float_val: 0.03125
      }
    }
  }
}
node {
  name: "parallel_read/mul"
  op: "Mul"
  input: "parallel_read/ToFloat"
  input: "parallel_read/mul/y"
  attr {
    key: "T"
    value {
      type: DT_FLOAT
    }
  }
  attr {
    key: "_output_shapes"
    value {
      list {
        shape {
        }
      }
    }
  }
}
node {
  name: "parallel_read/fraction_of_32_full/tags"
  op: "Const"
  attr {
    key: "_output_shapes"
    value {
      list {
        shape {
        }
      }
    }
  }
  attr {
    key: "dtype"
    value {
      type: DT_STRING
    }
  }
  attr {
    key: "value"
    value {
      tensor {
        dtype: DT_STRING
        tensor_shape {
        }
        string_val: "parallel_read/fraction_of_32_full"
      }
    }
  }
}
node {
  name: "parallel_read/fraction_of_32_full"
  op: "ScalarSummary"
  input: "parallel_read/fraction_of_32_full/tags"
  input: "parallel_read/mul"
  attr {
    key: "T"
    value {
      type: DT_FLOAT
    }
  }
  attr {
    key: "_output_shapes"
    value {
      list {
        shape {
        }
      }
    }
  }
}
node {
  name: "parallel_read/TFRecordReaderV2"
  op: "TFRecordReaderV2"
  attr {
    key: "_output_shapes"
    value {
      list {
        shape {
        }
      }
    }
  }
  attr {
    key: "compression_type"
    value {
      s: ""
    }
  }
  attr {
    key: "container"
    value {
      s: ""
    }
  }
  attr {
    key: "shared_name"
    value {
      s: ""
    }
  }
}
node {
  name: "parallel_read/ReaderReadV2"
  op: "ReaderReadV2"
  input: "parallel_read/TFRecordReaderV2"
  input: "parallel_read/filenames"
  attr {
    key: "_output_shapes"
    value {
      list {
        shape {
        }
        shape {
        }
      }
    }
  }
}
node {
  name: "parallel_read/common_queue_enqueue"
  op: "QueueEnqueueV2"
  input: "parallel_read/common_queue"
  input: "parallel_read/ReaderReadV2"
  input: "parallel_read/ReaderReadV2:1"
  attr {
    key: "Tcomponents"
    value {
      list {
        type: DT_STRING
        type: DT_STRING
      }
    }
  }
  attr {
    key: "timeout_ms"
    value {
      i: -1
    }
  }
}
node {
  name: "parallel_read/common_queue_Close"
  op: "QueueCloseV2"
  input: "parallel_read/common_queue"
  attr {
    key: "cancel_pending_enqueues"
    value {
      b: false
    }
  }
}
node {
  name: "parallel_read/common_queue_Close_1"
  op: "QueueCloseV2"
  input: "parallel_read/common_queue"
  attr {
    key: "cancel_pending_enqueues"
    value {
      b: true
    }
  }
}
node {
  name: "parallel_read/common_queue_Dequeue"
  op: "QueueDequeueV2"
  input: "parallel_read/common_queue"
  attr {
    key: "_output_shapes"
    value {
      list {
        shape {
          unknown_rank: true
        }
        shape {
          unknown_rank: true
        }
      }
    }
  }
  attr {
    key: "component_types"
    value {
      list {
        type: DT_STRING
        type: DT_STRING
      }
    }
  }
  attr {
    key: "timeout_ms"
    value {
      i: -1
    }
  }
}
node {
  name: "ParseSingleExample/key_image/encoded"
  op: "Const"
  attr {
    key: "_output_shapes"
    value {
      list {
        shape {
        }
      }
    }
  }
  attr {
    key: "dtype"
    value {
      type: DT_STRING
    }
  }
  attr {
    key: "value"
    value {
      tensor {
        dtype: DT_STRING
        tensor_shape {
        }
        string_val: ""
      }
    }
  }
}
node {
  name: "ParseSingleExample/Reshape/shape"
  op: "Const"
  attr {
    key: "_output_shapes"
    value {
      list {
        shape {
          dim {
          }
        }
      }
    }
  }
  attr {
    key: "dtype"
    value {
      type: DT_INT32
    }
  }
  attr {
    key: "value"
    value {
      tensor {
        dtype: DT_INT32
        tensor_shape {
          dim {
          }
        }
      }
    }
  }
}
node {
  name: "ParseSingleExample/Reshape"
  op: "Reshape"
  input: "ParseSingleExample/key_image/encoded"
  input: "ParseSingleExample/Reshape/shape"
  attr {
    key: "T"
    value {
      type: DT_STRING
    }
  }
  attr {
    key: "Tshape"
    value {
      type: DT_INT32
    }
  }
  attr {
    key: "_output_shapes"
    value {
      list {
        shape {
        }
      }
    }
  }
}
node {
  name: "ParseSingleExample/key_image/format"
  op: "Const"
  attr {
    key: "_output_shapes"
    value {
      list {
        shape {
        }
      }
    }
  }
  attr {
    key: "dtype"
    value {
      type: DT_STRING
    }
  }
  attr {
    key: "value"
    value {
      tensor {
        dtype: DT_STRING
        tensor_shape {
        }
        string_val: "png"
      }
    }
  }
}
node {
  name: "ParseSingleExample/Reshape_1/shape"
  op: "Const"
  attr {
    key: "_output_shapes"
    value {
      list {
        shape {
          dim {
          }
        }
      }
    }
  }
  attr {
    key: "dtype"
    value {
      type: DT_INT32
    }
  }
  attr {
    key: "value"
    value {
      tensor {
        dtype: DT_INT32
        tensor_shape {
          dim {
          }
        }
      }
    }
  }
}
node {
  name: "ParseSingleExample/Reshape_1"
  op: "Reshape"
  input: "ParseSingleExample/key_image/format"
  input: "ParseSingleExample/Reshape_1/shape"
  attr {
    key: "T"
    value {
      type: DT_STRING
    }
  }
  attr {
    key: "Tshape"
    value {
      type: DT_INT32
    }
  }
  attr {
    key: "_output_shapes"
    value {
      list {
        shape {
        }
      }
    }
  }
}
node {
  name: "ParseSingleExample/ParseSingleExample"
  op: "ParseSingleExample"
  input: "parallel_read/common_queue_Dequeue:1"
  input: "zeros"
  input: "ParseSingleExample/Reshape"
  input: "ParseSingleExample/Reshape_1"
  attr {
    key: "Tdense"
    value {
      list {
        type: DT_INT64
        type: DT_STRING
        type: DT_STRING
      }
    }
  }
  attr {
    key: "_output_shapes"
    value {
      list {
        shape {
        }
        shape {
        }
        shape {
        }
      }
    }
  }
  attr {
    key: "dense_keys"
    value {
      list {
        s: "image/class/label"
        s: "image/encoded"
        s: "image/format"
      }
    }
  }
  attr {
    key: "dense_shapes"
    value {
      list {
        shape {
        }
        shape {
        }
        shape {
        }
      }
    }
  }
  attr {
    key: "num_sparse"
    value {
      i: 0
    }
  }
  attr {
    key: "sparse_keys"
    value {
      list {
      }
    }
  }
  attr {
    key: "sparse_types"
    value {
      list {
      }
    }
  }
}
node {
  name: "Reshape/shape"
  op: "Const"
  attr {
    key: "_output_shapes"
    value {
      list {
        shape {
          dim {
          }
        }
      }
    }
  }
  attr {
    key: "dtype"
    value {
      type: DT_INT32
    }
  }
  attr {
    key: "value"
    value {
      tensor {
        dtype: DT_INT32
        tensor_shape {
          dim {
          }
        }
      }
    }
  }
}
node {
  name: "Reshape"
  op: "Reshape"
  input: "ParseSingleExample/ParseSingleExample"
  input: "Reshape/shape"
  attr {
    key: "T"
    value {
      type: DT_INT64
    }
  }
  attr {
    key: "Tshape"
    value {
      type: DT_INT32
    }
  }
  attr {
    key: "_output_shapes"
    value {
      list {
        shape {
        }
      }
    }
  }
}
node {
  name: "Reshape_1/shape"
  op: "Const"
  attr {
    key: "_output_shapes"
    value {
      list {
        shape {
          dim {
          }
        }
      }
    }
  }
  attr {
    key: "dtype"
    value {
      type: DT_INT32
    }
  }
  attr {
    key: "value"
    value {
      tensor {
        dtype: DT_INT32
        tensor_shape {
          dim {
          }
        }
      }
    }
  }
}
node {
  name: "Reshape_1"
  op: "Reshape"
  input: "ParseSingleExample/ParseSingleExample:1"
  input: "Reshape_1/shape"
  attr {
    key: "T"
    value {
      type: DT_STRING
    }
  }
  attr {
    key: "Tshape"
    value {
      type: DT_INT32
    }
  }
  attr {
    key: "_output_shapes"
    value {
      list {
        shape {
        }
      }
    }
  }
}
node {
  name: "Reshape_2/shape"
  op: "Const"
  attr {
    key: "_output_shapes"
    value {
      list {
        shape {
          dim {
          }
        }
      }
    }
  }
  attr {
    key: "dtype"
    value {
      type: DT_INT32
    }
  }
  attr {
    key: "value"
    value {
      tensor {
        dtype: DT_INT32
        tensor_shape {
          dim {
          }
        }
      }
    }
  }
}
node {
  name: "Reshape_2"
  op: "Reshape"
  input: "ParseSingleExample/ParseSingleExample:2"
  input: "Reshape_2/shape"
  attr {
    key: "T"
    value {
      type: DT_STRING
    }
  }
  attr {
    key: "Tshape"
    value {
      type: DT_INT32
    }
  }
  attr {
    key: "_output_shapes"
    value {
      list {
        shape {
        }
      }
    }
  }
}
node {
  name: "Equal/y"
  op: "Const"
  attr {
    key: "_output_shapes"
    value {
      list {
        shape {
        }
      }
    }
  }
  attr {
    key: "dtype"
    value {
      type: DT_STRING
    }
  }
  attr {
    key: "value"
    value {
      tensor {
        dtype: DT_STRING
        tensor_shape {
        }
        string_val: "raw"
      }
    }
  }
}
node {
  name: "Equal"
  op: "Equal"
  input: "Reshape_2"
  input: "Equal/y"
  attr {
    key: "T"
    value {
      type: DT_STRING
    }
  }
  attr {
    key: "_output_shapes"
    value {
      list {
        shape {
        }
      }
    }
  }
}
node {
  name: "Equal_1/y"
  op: "Const"
  attr {
    key: "_output_shapes"
    value {
      list {
        shape {
        }
      }
    }
  }
  attr {
    key: "dtype"
    value {
      type: DT_STRING
    }
  }
  attr {
    key: "value"
    value {
      tensor {
        dtype: DT_STRING
        tensor_shape {
        }
        string_val: "RAW"
      }
    }
  }
}
node {
  name: "Equal_1"
  op: "Equal"
  input: "Reshape_2"
  input: "Equal_1/y"
  attr {
    key: "T"
    value {
      type: DT_STRING
    }
  }
  attr {
    key: "_output_shapes"
    value {
      list {
        shape {
        }
      }
    }
  }
}
node {
  name: "LogicalOr"
  op: "LogicalOr"
  input: "Equal"
  input: "Equal_1"
  attr {
    key: "_output_shapes"
    value {
      list {
        shape {
        }
      }
    }
  }
}
node {
  name: "case/preds_c"
  op: "Pack"
  input: "LogicalOr"
  attr {
    key: "N"
    value {
      i: 1
    }
  }
  attr {
    key: "T"
    value {
      type: DT_BOOL
    }
  }
  attr {
    key: "_output_shapes"
    value {
      list {
        shape {
          dim {
            size: 1
          }
        }
      }
    }
  }
  attr {
    key: "axis"
    value {
      i: 0
    }
  }
}
node {
  name: "case/Cast"
  op: "Cast"
  input: "case/preds_c"
  attr {
    key: "DstT"
    value {
      type: DT_INT32
    }
  }
  attr {
    key: "SrcT"
    value {
      type: DT_BOOL
    }
  }
  attr {
    key: "_output_shapes"
    value {
      list {
        shape {
          dim {
            size: 1
          }
        }
      }
    }
  }
}
node {
  name: "case/Const"
  op: "Const"
  attr {
    key: "_output_shapes"
    value {
      list {
        shape {
          dim {
            size: 1
          }
        }
      }
    }
  }
  attr {
    key: "dtype"
    value {
      type: DT_INT32
    }
  }
  attr {
    key: "value"
    value {
      tensor {
        dtype: DT_INT32
        tensor_shape {
          dim {
            size: 1
          }
        }
        int_val: 0
      }
    }
  }
}
node {
  name: "case/num_true_conds"
  op: "Sum"
  input: "case/Cast"
  input: "case/Const"
  attr {
    key: "T"
    value {
      type: DT_INT32
    }
  }
  attr {
    key: "Tidx"
    value {
      type: DT_INT32
    }
  }
  attr {
    key: "_output_shapes"
    value {
      list {
        shape {
        }
      }
    }
  }
  attr {
    key: "keep_dims"
    value {
      b: false
    }
  }
}
node {
  name: "case/n_true_conds"
  op: "Const"
  attr {
    key: "_output_shapes"
    value {
      list {
        shape {
        }
      }
    }
  }
  attr {
    key: "dtype"
    value {
      type: DT_INT32
    }
  }
  attr {
    key: "value"
    value {
      tensor {
        dtype: DT_INT32
        tensor_shape {
        }
        int_val: 1
      }
    }
  }
}
node {
  name: "case/LessEqual"
  op: "LessEqual"
  input: "case/num_true_conds"
  input: "case/n_true_conds"
  attr {
    key: "T"
    value {
      type: DT_INT32
    }
  }
  attr {
    key: "_output_shapes"
    value {
      list {
        shape {
        }
      }
    }
  }
}
node {
  name: "case/Assert/Const"
  op: "Const"
  attr {
    key: "_output_shapes"
    value {
      list {
        shape {
        }
      }
    }
  }
  attr {
    key: "dtype"
    value {
      type: DT_STRING
    }
  }
  attr {
    key: "value"
    value {
      tensor {
        dtype: DT_STRING
        tensor_shape {
        }
        string_val: "Input error: exclusive=True: more than 1 conditions (LogicalOr:0) evaluated as True:"
      }
    }
  }
}
node {
  name: "case/Assert/AssertGuard/Switch"
  op: "Switch"
  input: "case/LessEqual"
  input: "case/LessEqual"
  attr {
    key: "T"
    value {
      type: DT_BOOL
    }
  }
  attr {
    key: "_output_shapes"
    value {
      list {
        shape {
        }
        shape {
        }
      }
    }
  }
}
node {
  name: "case/Assert/AssertGuard/switch_t"
  op: "Identity"
  input: "case/Assert/AssertGuard/Switch:1"
  attr {
    key: "T"
    value {
      type: DT_BOOL
    }
  }
  attr {
    key: "_output_shapes"
    value {
      list {
        shape {
        }
      }
    }
  }
}
node {
  name: "case/Assert/AssertGuard/switch_f"
  op: "Identity"
  input: "case/Assert/AssertGuard/Switch"
  attr {
    key: "T"
    value {
      type: DT_BOOL
    }
  }
  attr {
    key: "_output_shapes"
    value {
      list {
        shape {
        }
      }
    }
  }
}
node {
  name: "case/Assert/AssertGuard/pred_id"
  op: "Identity"
  input: "case/LessEqual"
  attr {
    key: "T"
    value {
      type: DT_BOOL
    }
  }
  attr {
    key: "_output_shapes"
    value {
      list {
        shape {
        }
      }
    }
  }
}
node {
  name: "case/Assert/AssertGuard/NoOp"
  op: "NoOp"
  input: "^case/Assert/AssertGuard/switch_t"
}
node {
  name: "case/Assert/AssertGuard/control_dependency"
  op: "Identity"
  input: "case/Assert/AssertGuard/switch_t"
  input: "^case/Assert/AssertGuard/NoOp"
  attr {
    key: "T"
    value {
      type: DT_BOOL
    }
  }
  attr {
    key: "_class"
    value {
      list {
        s: "loc:@case/Assert/AssertGuard/switch_t"
      }
    }
  }
  attr {
    key: "_output_shapes"
    value {
      list {
        shape {
        }
      }
    }
  }
}
node {
  name: "case/Assert/AssertGuard/Assert/data_0"
  op: "Const"
  input: "^case/Assert/AssertGuard/switch_f"
  attr {
    key: "_output_shapes"
    value {
      list {
        shape {
        }
      }
    }
  }
  attr {
    key: "dtype"
    value {
      type: DT_STRING
    }
  }
  attr {
    key: "value"
    value {
      tensor {
        dtype: DT_STRING
        tensor_shape {
        }
        string_val: "Input error: exclusive=True: more than 1 conditions (LogicalOr:0) evaluated as True:"
      }
    }
  }
}
node {
  name: "case/Assert/AssertGuard/Assert"
  op: "Assert"
  input: "case/Assert/AssertGuard/Assert/Switch"
  input: "case/Assert/AssertGuard/Assert/data_0"
  input: "case/Assert/AssertGuard/Assert/Switch_1"
  attr {
    key: "T"
    value {
      list {
        type: DT_STRING
        type: DT_BOOL
      }
    }
  }
  attr {
    key: "summarize"
    value {
      i: 1
    }
  }
}
node {
  name: "case/Assert/AssertGuard/Assert/Switch"
  op: "Switch"
  input: "case/LessEqual"
  input: "case/Assert/AssertGuard/pred_id"
  attr {
    key: "T"
    value {
      type: DT_BOOL
    }
  }
  attr {
    key: "_class"
    value {
      list {
        s: "loc:@case/LessEqual"
      }
    }
  }
  attr {
    key: "_output_shapes"
    value {
      list {
        shape {
        }
        shape {
        }
      }
    }
  }
}
node {
  name: "case/Assert/AssertGuard/Assert/Switch_1"
  op: "Switch"
  input: "case/preds_c"
  input: "case/Assert/AssertGuard/pred_id"
  attr {
    key: "T"
    value {
      type: DT_BOOL
    }
  }
  attr {
    key: "_class"
    value {
      list {
        s: "loc:@case/preds_c"
      }
    }
  }
  attr {
    key: "_output_shapes"
    value {
      list {
        shape {
          dim {
            size: 1
          }
        }
        shape {
          dim {
            size: 1
          }
        }
      }
    }
  }
}
node {
  name: "case/Assert/AssertGuard/control_dependency_1"
  op: "Identity"
  input: "case/Assert/AssertGuard/switch_f"
  input: "^case/Assert/AssertGuard/Assert"
  attr {
    key: "T"
    value {
      type: DT_BOOL
    }
  }
  attr {
    key: "_class"
    value {
      list {
        s: "loc:@case/Assert/AssertGuard/switch_f"
      }
    }
  }
  attr {
    key: "_output_shapes"
    value {
      list {
        shape {
        }
      }
    }
  }
}
node {
  name: "case/Assert/AssertGuard/Merge"
  op: "Merge"
  input: "case/Assert/AssertGuard/control_dependency_1"
  input: "case/Assert/AssertGuard/control_dependency"
  attr {
    key: "N"
    value {
      i: 2
    }
  }
  attr {
    key: "T"
    value {
      type: DT_BOOL
    }
  }
  attr {
    key: "_output_shapes"
    value {
      list {
        shape {
        }
        shape {
        }
      }
    }
  }
}
node {
  name: "case/cond/Switch"
  op: "Switch"
  input: "LogicalOr"
  input: "LogicalOr"
  input: "^case/Assert/AssertGuard/Merge"
  attr {
    key: "T"
    value {
      type: DT_BOOL
    }
  }
  attr {
    key: "_output_shapes"
    value {
      list {
        shape {
        }
        shape {
        }
      }
    }
  }
}
node {
  name: "case/cond/switch_t"
  op: "Identity"
  input: "case/cond/Switch:1"
  attr {
    key: "T"
    value {
      type: DT_BOOL
    }
  }
  attr {
    key: "_output_shapes"
    value {
      list {
        shape {
        }
      }
    }
  }
}
node {
  name: "case/cond/switch_f"
  op: "Identity"
  input: "case/cond/Switch"
  attr {
    key: "T"
    value {
      type: DT_BOOL
    }
  }
  attr {
    key: "_output_shapes"
    value {
      list {
        shape {
        }
      }
    }
  }
}
node {
  name: "case/cond/pred_id"
  op: "Identity"
  input: "LogicalOr"
  input: "^case/Assert/AssertGuard/Merge"
  attr {
    key: "T"
    value {
      type: DT_BOOL
    }
  }
  attr {
    key: "_output_shapes"
    value {
      list {
        shape {
        }
      }
    }
  }
}
node {
  name: "case/cond/DecodeRaw"
  op: "DecodeRaw"
  input: "case/cond/DecodeRaw/Switch:1"
  input: "^case/Assert/AssertGuard/Merge"
  attr {
    key: "_output_shapes"
    value {
      list {
        shape {
          dim {
            size: -1
          }
        }
      }
    }
  }
  attr {
    key: "little_endian"
    value {
      b: true
    }
  }
  attr {
    key: "out_type"
    value {
      type: DT_UINT8
    }
  }
}
node {
  name: "case/cond/DecodeRaw/Switch"
  op: "Switch"
  input: "Reshape_1"
  input: "case/cond/pred_id"
  attr {
    key: "T"
    value {
      type: DT_STRING
    }
  }
  attr {
    key: "_class"
    value {
      list {
        s: "loc:@Reshape_1"
      }
    }
  }
  attr {
    key: "_output_shapes"
    value {
      list {
        shape {
        }
        shape {
        }
      }
    }
  }
}
node {
  name: "case/cond/is_jpeg/Substr/pos"
  op: "Const"
  input: "^case/Assert/AssertGuard/Merge"
  input: "^case/cond/switch_f"
  attr {
    key: "_output_shapes"
    value {
      list {
        shape {
        }
      }
    }
  }
  attr {
    key: "dtype"
    value {
      type: DT_INT32
    }
  }
  attr {
    key: "value"
    value {
      tensor {
        dtype: DT_INT32
        tensor_shape {
        }
        int_val: 0
      }
    }
  }
}
node {
  name: "case/cond/is_jpeg/Substr/len"
  op: "Const"
  input: "^case/Assert/AssertGuard/Merge"
  input: "^case/cond/switch_f"
  attr {
    key: "_output_shapes"
    value {
      list {
        shape {
        }
      }
    }
  }
  attr {
    key: "dtype"
    value {
      type: DT_INT32
    }
  }
  attr {
    key: "value"
    value {
      tensor {
        dtype: DT_INT32
        tensor_shape {
        }
        int_val: 3
      }
    }
  }
}
node {
  name: "case/cond/is_jpeg/Substr"
  op: "Substr"
  input: "case/cond/is_jpeg/Substr/Switch"
  input: "case/cond/is_jpeg/Substr/pos"
  input: "case/cond/is_jpeg/Substr/len"
  attr {
    key: "T"
    value {
      type: DT_INT32
    }
  }
  attr {
    key: "_output_shapes"
    value {
      list {
        shape {
        }
      }
    }
  }
}
node {
  name: "case/cond/is_jpeg/Substr/Switch"
  op: "Switch"
  input: "Reshape_1"
  input: "case/cond/pred_id"
  attr {
    key: "T"
    value {
      type: DT_STRING
    }
  }
  attr {
    key: "_class"
    value {
      list {
        s: "loc:@Reshape_1"
      }
    }
  }
  attr {
    key: "_output_shapes"
    value {
      list {
        shape {
        }
        shape {
        }
      }
    }
  }
}
node {
  name: "case/cond/is_jpeg/Equal/y"
  op: "Const"
  input: "^case/Assert/AssertGuard/Merge"
  input: "^case/cond/switch_f"
  attr {
    key: "_output_shapes"
    value {
      list {
        shape {
        }
      }
    }
  }
  attr {
    key: "dtype"
    value {
      type: DT_STRING
    }
  }
  attr {
    key: "value"
    value {
      tensor {
        dtype: DT_STRING
        tensor_shape {
        }
        string_val: "\377\330\377"
      }
    }
  }
}
node {
  name: "case/cond/is_jpeg/Equal"
  op: "Equal"
  input: "case/cond/is_jpeg/Substr"
  input: "case/cond/is_jpeg/Equal/y"
  attr {
    key: "T"
    value {
      type: DT_STRING
    }
  }
  attr {
    key: "_output_shapes"
    value {
      list {
        shape {
        }
      }
    }
  }
}
node {
  name: "case/cond/cond_jpeg/Switch"
  op: "Switch"
  input: "case/cond/is_jpeg/Equal"
  input: "case/cond/is_jpeg/Equal"
  attr {
    key: "T"
    value {
      type: DT_BOOL
    }
  }
  attr {
    key: "_output_shapes"
    value {
      list {
        shape {
        }
        shape {
        }
      }
    }
  }
}
node {
  name: "case/cond/cond_jpeg/switch_t"
  op: "Identity"
  input: "case/cond/cond_jpeg/Switch:1"
  attr {
    key: "T"
    value {
      type: DT_BOOL
    }
  }
  attr {
    key: "_output_shapes"
    value {
      list {
        shape {
        }
      }
    }
  }
}
node {
  name: "case/cond/cond_jpeg/switch_f"
  op: "Identity"
  input: "case/cond/cond_jpeg/Switch"
  attr {
    key: "T"
    value {
      type: DT_BOOL
    }
  }
  attr {
    key: "_output_shapes"
    value {
      list {
        shape {
        }
      }
    }
  }
}
node {
  name: "case/cond/cond_jpeg/pred_id"
  op: "Identity"
  input: "case/cond/is_jpeg/Equal"
  attr {
    key: "T"
    value {
      type: DT_BOOL
    }
  }
  attr {
    key: "_output_shapes"
    value {
      list {
        shape {
        }
      }
    }
  }
}
node {
  name: "case/cond/cond_jpeg/DecodeJpeg"
  op: "DecodeJpeg"
  input: "case/cond/cond_jpeg/DecodeJpeg/Switch:1"
  input: "^case/Assert/AssertGuard/Merge"
  attr {
    key: "_output_shapes"
    value {
      list {
        shape {
          dim {
            size: -1
          }
          dim {
            size: -1
          }
          dim {
            size: 3
          }
        }
      }
    }
  }
  attr {
    key: "acceptable_fraction"
    value {
      f: 1.0
    }
  }
  attr {
    key: "channels"
    value {
      i: 3
    }
  }
  attr {
    key: "dct_method"
    value {
      s: ""
    }
  }
  attr {
    key: "fancy_upscaling"
    value {
      b: true
    }
  }
  attr {
    key: "ratio"
    value {
      i: 1
    }
  }
  attr {
    key: "try_recover_truncated"
    value {
      b: false
    }
  }
}
node {
  name: "case/cond/cond_jpeg/DecodeJpeg/Switch"
  op: "Switch"
  input: "case/cond/is_jpeg/Substr/Switch"
  input: "case/cond/cond_jpeg/pred_id"
  attr {
    key: "T"
    value {
      type: DT_STRING
    }
  }
  attr {
    key: "_class"
    value {
      list {
        s: "loc:@Reshape_1"
      }
    }
  }
  attr {
    key: "_output_shapes"
    value {
      list {
        shape {
        }
        shape {
        }
      }
    }
  }
}
node {
  name: "case/cond/cond_jpeg/decode_image/Substr/pos"
  op: "Const"
  input: "^case/Assert/AssertGuard/Merge"
  input: "^case/cond/cond_jpeg/switch_f"
  attr {
    key: "_output_shapes"
    value {
      list {
        shape {
        }
      }
    }
  }
  attr {
    key: "dtype"
    value {
      type: DT_INT32
    }
  }
  attr {
    key: "value"
    value {
      tensor {
        dtype: DT_INT32
        tensor_shape {
        }
        int_val: 0
      }
    }
  }
}
node {
  name: "case/cond/cond_jpeg/decode_image/Substr/len"
  op: "Const"
  input: "^case/Assert/AssertGuard/Merge"
  input: "^case/cond/cond_jpeg/switch_f"
  attr {
    key: "_output_shapes"
    value {
      list {
        shape {
        }
      }
    }
  }
  attr {
    key: "dtype"
    value {
      type: DT_INT32
    }
  }
  attr {
    key: "value"
    value {
      tensor {
        dtype: DT_INT32
        tensor_shape {
        }
        int_val: 3
      }
    }
  }
}
node {
  name: "case/cond/cond_jpeg/decode_image/Substr"
  op: "Substr"
  input: "case/cond/cond_jpeg/decode_image/Substr/Switch"
  input: "case/cond/cond_jpeg/decode_image/Substr/pos"
  input: "case/cond/cond_jpeg/decode_image/Substr/len"
  attr {
    key: "T"
    value {
      type: DT_INT32
    }
  }
  attr {
    key: "_output_shapes"
    value {
      list {
        shape {
        }
      }
    }
  }
}
node {
  name: "case/cond/cond_jpeg/decode_image/Substr/Switch"
  op: "Switch"
  input: "case/cond/is_jpeg/Substr/Switch"
  input: "case/cond/cond_jpeg/pred_id"
  attr {
    key: "T"
    value {
      type: DT_STRING
    }
  }
  attr {
    key: "_class"
    value {
      list {
        s: "loc:@Reshape_1"
      }
    }
  }
  attr {
    key: "_output_shapes"
    value {
      list {
        shape {
        }
        shape {
        }
      }
    }
  }
}
node {
  name: "case/cond/cond_jpeg/decode_image/is_jpeg/Substr/pos"
  op: "Const"
  input: "^case/Assert/AssertGuard/Merge"
  input: "^case/cond/cond_jpeg/switch_f"
  attr {
    key: "_output_shapes"
    value {
      list {
        shape {
        }
      }
    }
  }
  attr {
    key: "dtype"
    value {
      type: DT_INT32
    }
  }
  attr {
    key: "value"
    value {
      tensor {
        dtype: DT_INT32
        tensor_shape {
        }
        int_val: 0
      }
    }
  }
}
node {
  name: "case/cond/cond_jpeg/decode_image/is_jpeg/Substr/len"
  op: "Const"
  input: "^case/Assert/AssertGuard/Merge"
  input: "^case/cond/cond_jpeg/switch_f"
  attr {
    key: "_output_shapes"
    value {
      list {
        shape {
        }
      }
    }
  }
  attr {
    key: "dtype"
    value {
      type: DT_INT32
    }
  }
  attr {
    key: "value"
    value {
      tensor {
        dtype: DT_INT32
        tensor_shape {
        }
        int_val: 3
      }
    }
  }
}
node {
  name: "case/cond/cond_jpeg/decode_image/is_jpeg/Substr"
  op: "Substr"
  input: "case/cond/cond_jpeg/decode_image/Substr/Switch"
  input: "case/cond/cond_jpeg/decode_image/is_jpeg/Substr/pos"
  input: "case/cond/cond_jpeg/decode_image/is_jpeg/Substr/len"
  attr {
    key: "T"
    value {
      type: DT_INT32
    }
  }
  attr {
    key: "_output_shapes"
    value {
      list {
        shape {
        }
      }
    }
  }
}
node {
  name: "case/cond/cond_jpeg/decode_image/is_jpeg/Equal/y"
  op: "Const"
  input: "^case/Assert/AssertGuard/Merge"
  input: "^case/cond/cond_jpeg/switch_f"
  attr {
    key: "_output_shapes"
    value {
      list {
        shape {
        }
      }
    }
  }
  attr {
    key: "dtype"
    value {
      type: DT_STRING
    }
  }
  attr {
    key: "value"
    value {
      tensor {
        dtype: DT_STRING
        tensor_shape {
        }
        string_val: "\377\330\377"
      }
    }
  }
}
node {
  name: "case/cond/cond_jpeg/decode_image/is_jpeg/Equal"
  op: "Equal"
  input: "case/cond/cond_jpeg/decode_image/is_jpeg/Substr"
  input: "case/cond/cond_jpeg/decode_image/is_jpeg/Equal/y"
  attr {
    key: "T"
    value {
      type: DT_STRING
    }
  }
  attr {
    key: "_output_shapes"
    value {
      list {
        shape {
        }
      }
    }
  }
}
node {
  name: "case/cond/cond_jpeg/decode_image/cond_jpeg/Switch"
  op: "Switch"
  input: "case/cond/cond_jpeg/decode_image/is_jpeg/Equal"
  input: "case/cond/cond_jpeg/decode_image/is_jpeg/Equal"
  attr {
    key: "T"
    value {
      type: DT_BOOL
    }
  }
  attr {
    key: "_output_shapes"
    value {
      list {
        shape {
        }
        shape {
        }
      }
    }
  }
}
node {
  name: "case/cond/cond_jpeg/decode_image/cond_jpeg/switch_t"
  op: "Identity"
  input: "case/cond/cond_jpeg/decode_image/cond_jpeg/Switch:1"
  attr {
    key: "T"
    value {
      type: DT_BOOL
    }
  }
  attr {
    key: "_output_shapes"
    value {
      list {
        shape {
        }
      }
    }
  }
}
node {
  name: "case/cond/cond_jpeg/decode_image/cond_jpeg/switch_f"
  op: "Identity"
  input: "case/cond/cond_jpeg/decode_image/cond_jpeg/Switch"
  attr {
    key: "T"
    value {
      type: DT_BOOL
    }
  }
  attr {
    key: "_output_shapes"
    value {
      list {
        shape {
        }
      }
    }
  }
}
node {
  name: "case/cond/cond_jpeg/decode_image/cond_jpeg/pred_id"
  op: "Identity"
  input: "case/cond/cond_jpeg/decode_image/is_jpeg/Equal"
  attr {
    key: "T"
    value {
      type: DT_BOOL
    }
  }
  attr {
    key: "_output_shapes"
    value {
      list {
        shape {
        }
      }
    }
  }
}
node {
  name: "case/cond/cond_jpeg/decode_image/cond_jpeg/check_jpeg_channels/x"
  op: "Const"
  input: "^case/Assert/AssertGuard/Merge"
  input: "^case/cond/cond_jpeg/decode_image/cond_jpeg/switch_t"
  attr {
    key: "_output_shapes"
    value {
      list {
        shape {
        }
      }
    }
  }
  attr {
    key: "dtype"
    value {
      type: DT_INT32
    }
  }
  attr {
    key: "value"
    value {
      tensor {
        dtype: DT_INT32
        tensor_shape {
        }
        int_val: 3
      }
    }
  }
}
node {
  name: "case/cond/cond_jpeg/decode_image/cond_jpeg/check_jpeg_channels/y"
  op: "Const"
  input: "^case/Assert/AssertGuard/Merge"
  input: "^case/cond/cond_jpeg/decode_image/cond_jpeg/switch_t"
  attr {
    key: "_output_shapes"
    value {
      list {
        shape {
        }
      }
    }
  }
  attr {
    key: "dtype"
    value {
      type: DT_INT32
    }
  }
  attr {
    key: "value"
    value {
      tensor {
        dtype: DT_INT32
        tensor_shape {
        }
        int_val: 4
      }
    }
  }
}
node {
  name: "case/cond/cond_jpeg/decode_image/cond_jpeg/check_jpeg_channels"
  op: "NotEqual"
  input: "case/cond/cond_jpeg/decode_image/cond_jpeg/check_jpeg_channels/x"
  input: "case/cond/cond_jpeg/decode_image/cond_jpeg/check_jpeg_channels/y"
  attr {
    key: "T"
    value {
      type: DT_INT32
    }
  }
  attr {
    key: "_output_shapes"
    value {
      list {
        shape {
        }
      }
    }
  }
}
node {
  name: "case/cond/cond_jpeg/decode_image/cond_jpeg/Assert/Const"
  op: "Const"
  input: "^case/Assert/AssertGuard/Merge"
  input: "^case/cond/cond_jpeg/decode_image/cond_jpeg/switch_t"
  attr {
    key: "_output_shapes"
    value {
      list {
        shape {
        }
      }
    }
  }
  attr {
    key: "dtype"
    value {
      type: DT_STRING
    }
  }
  attr {
    key: "value"
    value {
      tensor {
        dtype: DT_STRING
        tensor_shape {
        }
        string_val: "Channels must be in (None, 0, 1, 3) when decoding JPEG images"
      }
    }
  }
}
node {
  name: "case/cond/cond_jpeg/decode_image/cond_jpeg/Assert/Assert/data_0"
  op: "Const"
  input: "^case/Assert/AssertGuard/Merge"
  input: "^case/cond/cond_jpeg/decode_image/cond_jpeg/switch_t"
  attr {
    key: "_output_shapes"
    value {
      list {
        shape {
        }
      }
    }
  }
  attr {
    key: "dtype"
    value {
      type: DT_STRING
    }
  }
  attr {
    key: "value"
    value {
      tensor {
        dtype: DT_STRING
        tensor_shape {
        }
        string_val: "Channels must be in (None, 0, 1, 3) when decoding JPEG images"
      }
    }
  }
}
node {
  name: "case/cond/cond_jpeg/decode_image/cond_jpeg/Assert/Assert"
  op: "Assert"
  input: "case/cond/cond_jpeg/decode_image/cond_jpeg/check_jpeg_channels"
  input: "case/cond/cond_jpeg/decode_image/cond_jpeg/Assert/Assert/data_0"
  attr {
    key: "T"
    value {
      list {
        type: DT_STRING
      }
    }
  }
  attr {
    key: "summarize"
    value {
      i: 3
    }
  }
}
node {
  name: "case/cond/cond_jpeg/decode_image/cond_jpeg/DecodeJpeg"
  op: "DecodeJpeg"
  input: "case/cond/cond_jpeg/decode_image/cond_jpeg/DecodeJpeg/Switch:1"
  input: "^case/Assert/AssertGuard/Merge"
  input: "^case/cond/cond_jpeg/decode_image/cond_jpeg/Assert/Assert"
  attr {
    key: "_output_shapes"
    value {
      list {
        shape {
          dim {
            size: -1
          }
          dim {
            size: -1
          }
          dim {
            size: 3
          }
        }
      }
    }
  }
  attr {
    key: "acceptable_fraction"
    value {
      f: 1.0
    }
  }
  attr {
    key: "channels"
    value {
      i: 3
    }
  }
  attr {
    key: "dct_method"
    value {
      s: ""
    }
  }
  attr {
    key: "fancy_upscaling"
    value {
      b: true
    }
  }
  attr {
    key: "ratio"
    value {
      i: 1
    }
  }
  attr {
    key: "try_recover_truncated"
    value {
      b: false
    }
  }
}
node {
  name: "case/cond/cond_jpeg/decode_image/cond_jpeg/DecodeJpeg/Switch"
  op: "Switch"
  input: "case/cond/cond_jpeg/decode_image/Substr/Switch"
  input: "case/cond/cond_jpeg/decode_image/cond_jpeg/pred_id"
  attr {
    key: "T"
    value {
      type: DT_STRING
    }
  }
  attr {
    key: "_class"
    value {
      list {
        s: "loc:@Reshape_1"
      }
    }
  }
  attr {
    key: "_output_shapes"
    value {
      list {
        shape {
        }
        shape {
        }
      }
    }
  }
}
node {
  name: "case/cond/cond_jpeg/decode_image/cond_jpeg/is_png/y"
  op: "Const"
  input: "^case/Assert/AssertGuard/Merge"
  input: "^case/cond/cond_jpeg/decode_image/cond_jpeg/switch_f"
  attr {
    key: "_output_shapes"
    value {
      list {
        shape {
        }
      }
    }
  }
  attr {
    key: "dtype"
    value {
      type: DT_STRING
    }
  }
  attr {
    key: "value"
    value {
      tensor {
        dtype: DT_STRING
        tensor_shape {
        }
        string_val: "\211PN"
      }
    }
  }
}
node {
  name: "case/cond/cond_jpeg/decode_image/cond_jpeg/is_png"
  op: "Equal"
  input: "case/cond/cond_jpeg/decode_image/cond_jpeg/is_png/Switch"
  input: "case/cond/cond_jpeg/decode_image/cond_jpeg/is_png/y"
  attr {
    key: "T"
    value {
      type: DT_STRING
    }
  }
  attr {
    key: "_output_shapes"
    value {
      list {
        shape {
        }
      }
    }
  }
}
node {
  name: "case/cond/cond_jpeg/decode_image/cond_jpeg/is_png/Switch"
  op: "Switch"
  input: "case/cond/cond_jpeg/decode_image/Substr"
  input: "case/cond/cond_jpeg/decode_image/cond_jpeg/pred_id"
  attr {
    key: "T"
    value {
      type: DT_STRING
    }
  }
  attr {
    key: "_class"
    value {
      list {
        s: "loc:@case/cond/cond_jpeg/decode_image/Substr"
      }
    }
  }
  attr {
    key: "_output_shapes"
    value {
      list {
        shape {
        }
        shape {
        }
      }
    }
  }
}
node {
  name: "case/cond/cond_jpeg/decode_image/cond_jpeg/cond_png/Switch"
  op: "Switch"
  input: "case/cond/cond_jpeg/decode_image/cond_jpeg/is_png"
  input: "case/cond/cond_jpeg/decode_image/cond_jpeg/is_png"
  attr {
    key: "T"
    value {
      type: DT_BOOL
    }
  }
  attr {
    key: "_output_shapes"
    value {
      list {
        shape {
        }
        shape {
        }
      }
    }
  }
}
node {
  name: "case/cond/cond_jpeg/decode_image/cond_jpeg/cond_png/switch_t"
  op: "Identity"
  input: "case/cond/cond_jpeg/decode_image/cond_jpeg/cond_png/Switch:1"
  attr {
    key: "T"
    value {
      type: DT_BOOL
    }
  }
  attr {
    key: "_output_shapes"
    value {
      list {
        shape {
        }
      }
    }
  }
}
node {
  name: "case/cond/cond_jpeg/decode_image/cond_jpeg/cond_png/switch_f"
  op: "Identity"
  input: "case/cond/cond_jpeg/decode_image/cond_jpeg/cond_png/Switch"
  attr {
    key: "T"
    value {
      type: DT_BOOL
    }
  }
  attr {
    key: "_output_shapes"
    value {
      list {
        shape {
        }
      }
    }
  }
}
node {
  name: "case/cond/cond_jpeg/decode_image/cond_jpeg/cond_png/pred_id"
  op: "Identity"
  input: "case/cond/cond_jpeg/decode_image/cond_jpeg/is_png"
  attr {
    key: "T"
    value {
      type: DT_BOOL
    }
  }
  attr {
    key: "_output_shapes"
    value {
      list {
        shape {
        }
      }
    }
  }
}
node {
  name: "case/cond/cond_jpeg/decode_image/cond_jpeg/cond_png/DecodePng"
  op: "DecodePng"
  input: "case/cond/cond_jpeg/decode_image/cond_jpeg/cond_png/DecodePng/Switch_1:1"
  input: "^case/Assert/AssertGuard/Merge"
  attr {
    key: "_output_shapes"
    value {
      list {
        shape {
          dim {
            size: -1
          }
          dim {
            size: -1
          }
          dim {
            size: 3
          }
        }
      }
    }
  }
  attr {
    key: "channels"
    value {
      i: 3
    }
  }
  attr {
    key: "dtype"
    value {
      type: DT_UINT8
    }
  }
}
node {
  name: "case/cond/cond_jpeg/decode_image/cond_jpeg/cond_png/DecodePng/Switch"
  op: "Switch"
  input: "case/cond/cond_jpeg/decode_image/Substr/Switch"
  input: "case/cond/cond_jpeg/decode_image/cond_jpeg/pred_id"
  attr {
    key: "T"
    value {
      type: DT_STRING
    }
  }
  attr {
    key: "_class"
    value {
      list {
        s: "loc:@Reshape_1"
      }
    }
  }
  attr {
    key: "_output_shapes"
    value {
      list {
        shape {
        }
        shape {
        }
      }
    }
  }
}
node {
  name: "case/cond/cond_jpeg/decode_image/cond_jpeg/cond_png/DecodePng/Switch_1"
  op: "Switch"
  input: "case/cond/cond_jpeg/decode_image/cond_jpeg/cond_png/DecodePng/Switch"
  input: "case/cond/cond_jpeg/decode_image/cond_jpeg/cond_png/pred_id"
  attr {
    key: "T"
    value {
      type: DT_STRING
    }
  }
  attr {
    key: "_class"
    value {
      list {
        s: "loc:@Reshape_1"
      }
    }
  }
  attr {
    key: "_output_shapes"
    value {
      list {
        shape {
        }
        shape {
        }
      }
    }
  }
}
node {
  name: "case/cond/cond_jpeg/decode_image/cond_jpeg/cond_png/is_gif/y"
  op: "Const"
  input: "^case/Assert/AssertGuard/Merge"
  input: "^case/cond/cond_jpeg/decode_image/cond_jpeg/cond_png/switch_f"
  attr {
    key: "_output_shapes"
    value {
      list {
        shape {
        }
      }
    }
  }
  attr {
    key: "dtype"
    value {
      type: DT_STRING
    }
  }
  attr {
    key: "value"
    value {
      tensor {
        dtype: DT_STRING
        tensor_shape {
        }
        string_val: "GIF"
      }
    }
  }
}
node {
  name: "case/cond/cond_jpeg/decode_image/cond_jpeg/cond_png/is_gif"
  op: "Equal"
  input: "case/cond/cond_jpeg/decode_image/cond_jpeg/cond_png/is_gif/Switch"
  input: "case/cond/cond_jpeg/decode_image/cond_jpeg/cond_png/is_gif/y"
  attr {
    key: "T"
    value {
      type: DT_STRING
    }
  }
  attr {
    key: "_output_shapes"
    value {
      list {
        shape {
        }
      }
    }
  }
}
node {
  name: "case/cond/cond_jpeg/decode_image/cond_jpeg/cond_png/is_gif/Switch"
  op: "Switch"
  input: "case/cond/cond_jpeg/decode_image/cond_jpeg/is_png/Switch"
  input: "case/cond/cond_jpeg/decode_image/cond_jpeg/cond_png/pred_id"
  attr {
    key: "T"
    value {
      type: DT_STRING
    }
  }
  attr {
    key: "_class"
    value {
      list {
        s: "loc:@case/cond/cond_jpeg/decode_image/Substr"
      }
    }
  }
  attr {
    key: "_output_shapes"
    value {
      list {
        shape {
        }
        shape {
        }
      }
    }
  }
}
node {
  name: "case/cond/cond_jpeg/decode_image/cond_jpeg/cond_png/cond_gif/Switch"
  op: "Switch"
  input: "case/cond/cond_jpeg/decode_image/cond_jpeg/cond_png/is_gif"
  input: "case/cond/cond_jpeg/decode_image/cond_jpeg/cond_png/is_gif"
  attr {
    key: "T"
    value {
      type: DT_BOOL
    }
  }
  attr {
    key: "_output_shapes"
    value {
      list {
        shape {
        }
        shape {
        }
      }
    }
  }
}
node {
  name: "case/cond/cond_jpeg/decode_image/cond_jpeg/cond_png/cond_gif/switch_t"
  op: "Identity"
  input: "case/cond/cond_jpeg/decode_image/cond_jpeg/cond_png/cond_gif/Switch:1"
  attr {
    key: "T"
    value {
      type: DT_BOOL
    }
  }
  attr {
    key: "_output_shapes"
    value {
      list {
        shape {
        }
      }
    }
  }
}
node {
  name: "case/cond/cond_jpeg/decode_image/cond_jpeg/cond_png/cond_gif/switch_f"
  op: "Identity"
  input: "case/cond/cond_jpeg/decode_image/cond_jpeg/cond_png/cond_gif/Switch"
  attr {
    key: "T"
    value {
      type: DT_BOOL
    }
  }
  attr {
    key: "_output_shapes"
    value {
      list {
        shape {
        }
      }
    }
  }
}
node {
  name: "case/cond/cond_jpeg/decode_image/cond_jpeg/cond_png/cond_gif/pred_id"
  op: "Identity"
  input: "case/cond/cond_jpeg/decode_image/cond_jpeg/cond_png/is_gif"
  attr {
    key: "T"
    value {
      type: DT_BOOL
    }
  }
  attr {
    key: "_output_shapes"
    value {
      list {
        shape {
        }
      }
    }
  }
}
node {
  name: "case/cond/cond_jpeg/decode_image/cond_jpeg/cond_png/cond_gif/check_gif_channels/x"
  op: "Const"
  input: "^case/Assert/AssertGuard/Merge"
  input: "^case/cond/cond_jpeg/decode_image/cond_jpeg/cond_png/cond_gif/switch_t"
  attr {
    key: "_output_shapes"
    value {
      list {
        shape {
        }
      }
    }
  }
  attr {
    key: "dtype"
    value {
      type: DT_INT32
    }
  }
  attr {
    key: "value"
    value {
      tensor {
        dtype: DT_INT32
        tensor_shape {
        }
        int_val: 3
      }
    }
  }
}
node {
  name: "case/cond/cond_jpeg/decode_image/cond_jpeg/cond_png/cond_gif/check_gif_channels/y"
  op: "Const"
  input: "^case/Assert/AssertGuard/Merge"
  input: "^case/cond/cond_jpeg/decode_image/cond_jpeg/cond_png/cond_gif/switch_t"
  attr {
    key: "_output_shapes"
    value {
      list {
        shape {
        }
      }
    }
  }
  attr {
    key: "dtype"
    value {
      type: DT_INT32
    }
  }
  attr {
    key: "value"
    value {
      tensor {
        dtype: DT_INT32
        tensor_shape {
        }
        int_val: 1
      }
    }
  }
}
node {
  name: "case/cond/cond_jpeg/decode_image/cond_jpeg/cond_png/cond_gif/check_gif_channels"
  op: "NotEqual"
  input: "case/cond/cond_jpeg/decode_image/cond_jpeg/cond_png/cond_gif/check_gif_channels/x"
  input: "case/cond/cond_jpeg/decode_image/cond_jpeg/cond_png/cond_gif/check_gif_channels/y"
  attr {
    key: "T"
    value {
      type: DT_INT32
    }
  }
  attr {
    key: "_output_shapes"
    value {
      list {
        shape {
        }
      }
    }
  }
}
node {
  name: "case/cond/cond_jpeg/decode_image/cond_jpeg/cond_png/cond_gif/check_gif_channels_1/x"
  op: "Const"
  input: "^case/Assert/AssertGuard/Merge"
  input: "^case/cond/cond_jpeg/decode_image/cond_jpeg/cond_png/cond_gif/switch_t"
  attr {
    key: "_output_shapes"
    value {
      list {
        shape {
        }
      }
    }
  }
  attr {
    key: "dtype"
    value {
      type: DT_INT32
    }
  }
  attr {
    key: "value"
    value {
      tensor {
        dtype: DT_INT32
        tensor_shape {
        }
        int_val: 3
      }
    }
  }
}
node {
  name: "case/cond/cond_jpeg/decode_image/cond_jpeg/cond_png/cond_gif/check_gif_channels_1/y"
  op: "Const"
  input: "^case/Assert/AssertGuard/Merge"
  input: "^case/cond/cond_jpeg/decode_image/cond_jpeg/cond_png/cond_gif/switch_t"
  attr {
    key: "_output_shapes"
    value {
      list {
        shape {
        }
      }
    }
  }
  attr {
    key: "dtype"
    value {
      type: DT_INT32
    }
  }
  attr {
    key: "value"
    value {
      tensor {
        dtype: DT_INT32
        tensor_shape {
        }
        int_val: 4
      }
    }
  }
}
node {
  name: "case/cond/cond_jpeg/decode_image/cond_jpeg/cond_png/cond_gif/check_gif_channels_1"
  op: "NotEqual"
  input: "case/cond/cond_jpeg/decode_image/cond_jpeg/cond_png/cond_gif/check_gif_channels_1/x"
  input: "case/cond/cond_jpeg/decode_image/cond_jpeg/cond_png/cond_gif/check_gif_channels_1/y"
  attr {
    key: "T"
    value {
      type: DT_INT32
    }
  }
  attr {
    key: "_output_shapes"
    value {
      list {
        shape {
        }
      }
    }
  }
}
node {
  name: "case/cond/cond_jpeg/decode_image/cond_jpeg/cond_png/cond_gif/LogicalAnd"
  op: "LogicalAnd"
  input: "case/cond/cond_jpeg/decode_image/cond_jpeg/cond_png/cond_gif/check_gif_channels"
  input: "case/cond/cond_jpeg/decode_image/cond_jpeg/cond_png/cond_gif/check_gif_channels_1"
  attr {
    key: "_output_shapes"
    value {
      list {
        shape {
        }
      }
    }
  }
}
node {
  name: "case/cond/cond_jpeg/decode_image/cond_jpeg/cond_png/cond_gif/Assert/Const"
  op: "Const"
  input: "^case/Assert/AssertGuard/Merge"
  input: "^case/cond/cond_jpeg/decode_image/cond_jpeg/cond_png/cond_gif/switch_t"
  attr {
    key: "_output_shapes"
    value {
      list {
        shape {
        }
      }
    }
  }
  attr {
    key: "dtype"
    value {
      type: DT_STRING
    }
  }
  attr {
    key: "value"
    value {
      tensor {
        dtype: DT_STRING
        tensor_shape {
        }
        string_val: "Channels must be in (None, 0, 3) when decoding GIF images"
      }
    }
  }
}
node {
  name: "case/cond/cond_jpeg/decode_image/cond_jpeg/cond_png/cond_gif/Assert/Assert/data_0"
  op: "Const"
  input: "^case/Assert/AssertGuard/Merge"
  input: "^case/cond/cond_jpeg/decode_image/cond_jpeg/cond_png/cond_gif/switch_t"
  attr {
    key: "_output_shapes"
    value {
      list {
        shape {
        }
      }
    }
  }
  attr {
    key: "dtype"
    value {
      type: DT_STRING
    }
  }
  attr {
    key: "value"
    value {
      tensor {
        dtype: DT_STRING
        tensor_shape {
        }
        string_val: "Channels must be in (None, 0, 3) when decoding GIF images"
      }
    }
  }
}
node {
  name: "case/cond/cond_jpeg/decode_image/cond_jpeg/cond_png/cond_gif/Assert/Assert"
  op: "Assert"
  input: "case/cond/cond_jpeg/decode_image/cond_jpeg/cond_png/cond_gif/LogicalAnd"
  input: "case/cond/cond_jpeg/decode_image/cond_jpeg/cond_png/cond_gif/Assert/Assert/data_0"
  attr {
    key: "T"
    value {
      list {
        type: DT_STRING
      }
    }
  }
  attr {
    key: "summarize"
    value {
      i: 3
    }
  }
}
node {
  name: "case/cond/cond_jpeg/decode_image/cond_jpeg/cond_png/cond_gif/DecodeGif"
  op: "DecodeGif"
  input: "case/cond/cond_jpeg/decode_image/cond_jpeg/cond_png/cond_gif/DecodeGif/Switch_1:1"
  input: "^case/Assert/AssertGuard/Merge"
  input: "^case/cond/cond_jpeg/decode_image/cond_jpeg/cond_png/cond_gif/Assert/Assert"
  attr {
    key: "_output_shapes"
    value {
      list {
        shape {
          dim {
            size: -1
          }
          dim {
            size: -1
          }
          dim {
            size: -1
          }
          dim {
            size: 3
          }
        }
      }
    }
  }
}
node {
  name: "case/cond/cond_jpeg/decode_image/cond_jpeg/cond_png/cond_gif/DecodeGif/Switch"
  op: "Switch"
  input: "case/cond/cond_jpeg/decode_image/cond_jpeg/cond_png/DecodePng/Switch"
  input: "case/cond/cond_jpeg/decode_image/cond_jpeg/cond_png/pred_id"
  attr {
    key: "T"
    value {
      type: DT_STRING
    }
  }
  attr {
    key: "_class"
    value {
      list {
        s: "loc:@Reshape_1"
      }
    }
  }
  attr {
    key: "_output_shapes"
    value {
      list {
        shape {
        }
        shape {
        }
      }
    }
  }
}
node {
  name: "case/cond/cond_jpeg/decode_image/cond_jpeg/cond_png/cond_gif/DecodeGif/Switch_1"
  op: "Switch"
  input: "case/cond/cond_jpeg/decode_image/cond_jpeg/cond_png/cond_gif/DecodeGif/Switch"
  input: "case/cond/cond_jpeg/decode_image/cond_jpeg/cond_png/cond_gif/pred_id"
  attr {
    key: "T"
    value {
      type: DT_STRING
    }
  }
  attr {
    key: "_class"
    value {
      list {
        s: "loc:@Reshape_1"
      }
    }
  }
  attr {
    key: "_output_shapes"
    value {
      list {
        shape {
        }
        shape {
        }
      }
    }
  }
}
node {
  name: "case/cond/cond_jpeg/decode_image/cond_jpeg/cond_png/cond_gif/Substr/pos"
  op: "Const"
  input: "^case/Assert/AssertGuard/Merge"
  input: "^case/cond/cond_jpeg/decode_image/cond_jpeg/cond_png/cond_gif/switch_f"
  attr {
    key: "_output_shapes"
    value {
      list {
        shape {
        }
      }
    }
  }
  attr {
    key: "dtype"
    value {
      type: DT_INT32
    }
  }
  attr {
    key: "value"
    value {
      tensor {
        dtype: DT_INT32
        tensor_shape {
        }
        int_val: 0
      }
    }
  }
}
node {
  name: "case/cond/cond_jpeg/decode_image/cond_jpeg/cond_png/cond_gif/Substr/len"
  op: "Const"
  input: "^case/Assert/AssertGuard/Merge"
  input: "^case/cond/cond_jpeg/decode_image/cond_jpeg/cond_png/cond_gif/switch_f"
  attr {
    key: "_output_shapes"
    value {
      list {
        shape {
        }
      }
    }
  }
  attr {
    key: "dtype"
    value {
      type: DT_INT32
    }
  }
  attr {
    key: "value"
    value {
      tensor {
        dtype: DT_INT32
        tensor_shape {
        }
        int_val: 2
      }
    }
  }
}
node {
  name: "case/cond/cond_jpeg/decode_image/cond_jpeg/cond_png/cond_gif/Substr"
  op: "Substr"
  input: "case/cond/cond_jpeg/decode_image/cond_jpeg/cond_png/cond_gif/Substr/Switch"
  input: "case/cond/cond_jpeg/decode_image/cond_jpeg/cond_png/cond_gif/Substr/pos"
  input: "case/cond/cond_jpeg/decode_image/cond_jpeg/cond_png/cond_gif/Substr/len"
  attr {
    key: "T"
    value {
      type: DT_INT32
    }
  }
  attr {
    key: "_output_shapes"
    value {
      list {
        shape {
        }
      }
    }
  }
}
node {
  name: "case/cond/cond_jpeg/decode_image/cond_jpeg/cond_png/cond_gif/Substr/Switch"
  op: "Switch"
  input: "case/cond/cond_jpeg/decode_image/cond_jpeg/cond_png/cond_gif/DecodeGif/Switch"
  input: "case/cond/cond_jpeg/decode_image/cond_jpeg/cond_png/cond_gif/pred_id"
  attr {
    key: "T"
    value {
      type: DT_STRING
    }
  }
  attr {
    key: "_class"
    value {
      list {
        s: "loc:@Reshape_1"
      }
    }
  }
  attr {
    key: "_output_shapes"
    value {
      list {
        shape {
        }
        shape {
        }
      }
    }
  }
}
node {
  name: "case/cond/cond_jpeg/decode_image/cond_jpeg/cond_png/cond_gif/is_bmp/y"
  op: "Const"
  input: "^case/Assert/AssertGuard/Merge"
  input: "^case/cond/cond_jpeg/decode_image/cond_jpeg/cond_png/cond_gif/switch_f"
  attr {
    key: "_output_shapes"
    value {
      list {
        shape {
        }
      }
    }
  }
  attr {
    key: "dtype"
    value {
      type: DT_STRING
    }
  }
  attr {
    key: "value"
    value {
      tensor {
        dtype: DT_STRING
        tensor_shape {
        }
        string_val: "BM"
      }
    }
  }
}
node {
  name: "case/cond/cond_jpeg/decode_image/cond_jpeg/cond_png/cond_gif/is_bmp"
  op: "Equal"
  input: "case/cond/cond_jpeg/decode_image/cond_jpeg/cond_png/cond_gif/Substr"
  input: "case/cond/cond_jpeg/decode_image/cond_jpeg/cond_png/cond_gif/is_bmp/y"
  attr {
    key: "T"
    value {
      type: DT_STRING
    }
  }
  attr {
    key: "_output_shapes"
    value {
      list {
        shape {
        }
      }
    }
  }
}
node {
  name: "case/cond/cond_jpeg/decode_image/cond_jpeg/cond_png/cond_gif/Assert_1/Const"
  op: "Const"
  input: "^case/Assert/AssertGuard/Merge"
  input: "^case/cond/cond_jpeg/decode_image/cond_jpeg/cond_png/cond_gif/switch_f"
  attr {
    key: "_output_shapes"
    value {
      list {
        shape {
        }
      }
    }
  }
  attr {
    key: "dtype"
    value {
      type: DT_STRING
    }
  }
  attr {
    key: "value"
    value {
      tensor {
        dtype: DT_STRING
        tensor_shape {
        }
        string_val: "Unable to decode bytes as JPEG, PNG, GIF, or BMP"
      }
    }
  }
}
node {
  name: "case/cond/cond_jpeg/decode_image/cond_jpeg/cond_png/cond_gif/Assert_1/Assert/data_0"
  op: "Const"
  input: "^case/Assert/AssertGuard/Merge"
  input: "^case/cond/cond_jpeg/decode_image/cond_jpeg/cond_png/cond_gif/switch_f"
  attr {
    key: "_output_shapes"
    value {
      list {
        shape {
        }
      }
    }
  }
  attr {
    key: "dtype"
    value {
      type: DT_STRING
    }
  }
  attr {
    key: "value"
    value {
      tensor {
        dtype: DT_STRING
        tensor_shape {
        }
        string_val: "Unable to decode bytes as JPEG, PNG, GIF, or BMP"
      }
    }
  }
}
node {
  name: "case/cond/cond_jpeg/decode_image/cond_jpeg/cond_png/cond_gif/Assert_1/Assert"
  op: "Assert"
  input: "case/cond/cond_jpeg/decode_image/cond_jpeg/cond_png/cond_gif/is_bmp"
  input: "case/cond/cond_jpeg/decode_image/cond_jpeg/cond_png/cond_gif/Assert_1/Assert/data_0"
  attr {
    key: "T"
    value {
      list {
        type: DT_STRING
      }
    }
  }
  attr {
    key: "summarize"
    value {
      i: 3
    }
  }
}
node {
  name: "case/cond/cond_jpeg/decode_image/cond_jpeg/cond_png/cond_gif/check_channels/x"
  op: "Const"
  input: "^case/Assert/AssertGuard/Merge"
  input: "^case/cond/cond_jpeg/decode_image/cond_jpeg/cond_png/cond_gif/switch_f"
  attr {
    key: "_output_shapes"
    value {
      list {
        shape {
        }
      }
    }
  }
  attr {
    key: "dtype"
    value {
      type: DT_INT32
    }
  }
  attr {
    key: "value"
    value {
      tensor {
        dtype: DT_INT32
        tensor_shape {
        }
        int_val: 3
      }
    }
  }
}
node {
  name: "case/cond/cond_jpeg/decode_image/cond_jpeg/cond_png/cond_gif/check_channels/y"
  op: "Const"
  input: "^case/Assert/AssertGuard/Merge"
  input: "^case/cond/cond_jpeg/decode_image/cond_jpeg/cond_png/cond_gif/switch_f"
  attr {
    key: "_output_shapes"
    value {
      list {
        shape {
        }
      }
    }
  }
  attr {
    key: "dtype"
    value {
      type: DT_INT32
    }
  }
  attr {
    key: "value"
    value {
      tensor {
        dtype: DT_INT32
        tensor_shape {
        }
        int_val: 1
      }
    }
  }
}
node {
  name: "case/cond/cond_jpeg/decode_image/cond_jpeg/cond_png/cond_gif/check_channels"
  op: "NotEqual"
  input: "case/cond/cond_jpeg/decode_image/cond_jpeg/cond_png/cond_gif/check_channels/x"
  input: "case/cond/cond_jpeg/decode_image/cond_jpeg/cond_png/cond_gif/check_channels/y"
  attr {
    key: "T"
    value {
      type: DT_INT32
    }
  }
  attr {
    key: "_output_shapes"
    value {
      list {
        shape {
        }
      }
    }
  }
}
node {
  name: "case/cond/cond_jpeg/decode_image/cond_jpeg/cond_png/cond_gif/Assert_2/Const"
  op: "Const"
  input: "^case/Assert/AssertGuard/Merge"
  input: "^case/cond/cond_jpeg/decode_image/cond_jpeg/cond_png/cond_gif/switch_f"
  attr {
    key: "_output_shapes"
    value {
      list {
        shape {
        }
      }
    }
  }
  attr {
    key: "dtype"
    value {
      type: DT_STRING
    }
  }
  attr {
    key: "value"
    value {
      tensor {
        dtype: DT_STRING
        tensor_shape {
        }
        string_val: "Channels must be in (None, 0, 3) when decoding BMP images"
      }
    }
  }
}
node {
  name: "case/cond/cond_jpeg/decode_image/cond_jpeg/cond_png/cond_gif/Assert_2/Assert/data_0"
  op: "Const"
  input: "^case/Assert/AssertGuard/Merge"
  input: "^case/cond/cond_jpeg/decode_image/cond_jpeg/cond_png/cond_gif/switch_f"
  attr {
    key: "_output_shapes"
    value {
      list {
        shape {
        }
      }
    }
  }
  attr {
    key: "dtype"
    value {
      type: DT_STRING
    }
  }
  attr {
    key: "value"
    value {
      tensor {
        dtype: DT_STRING
        tensor_shape {
        }
        string_val: "Channels must be in (None, 0, 3) when decoding BMP images"
      }
    }
  }
}
node {
  name: "case/cond/cond_jpeg/decode_image/cond_jpeg/cond_png/cond_gif/Assert_2/Assert"
  op: "Assert"
  input: "case/cond/cond_jpeg/decode_image/cond_jpeg/cond_png/cond_gif/check_channels"
  input: "case/cond/cond_jpeg/decode_image/cond_jpeg/cond_png/cond_gif/Assert_2/Assert/data_0"
  attr {
    key: "T"
    value {
      list {
        type: DT_STRING
      }
    }
  }
  attr {
    key: "summarize"
    value {
      i: 3
    }
  }
}
node {
  name: "case/cond/cond_jpeg/decode_image/cond_jpeg/cond_png/cond_gif/DecodeBmp"
  op: "DecodeBmp"
  input: "case/cond/cond_jpeg/decode_image/cond_jpeg/cond_png/cond_gif/Substr/Switch"
  input: "^case/Assert/AssertGuard/Merge"
  input: "^case/cond/cond_jpeg/decode_image/cond_jpeg/cond_png/cond_gif/Assert_1/Assert"
  input: "^case/cond/cond_jpeg/decode_image/cond_jpeg/cond_png/cond_gif/Assert_2/Assert"
  attr {
    key: "_output_shapes"
    value {
      list {
        shape {
          dim {
            size: -1
          }
          dim {
            size: -1
          }
          dim {
            size: -1
          }
        }
      }
    }
  }
  attr {
    key: "channels"
    value {
      i: 0
    }
  }
}
node {
  name: "case/cond/cond_jpeg/decode_image/cond_jpeg/cond_png/cond_gif/Merge"
  op: "Merge"
  input: "case/cond/cond_jpeg/decode_image/cond_jpeg/cond_png/cond_gif/DecodeBmp"
  input: "case/cond/cond_jpeg/decode_image/cond_jpeg/cond_png/cond_gif/DecodeGif"
  attr {
    key: "N"
    value {
      i: 2
    }
  }
  attr {
    key: "T"
    value {
      type: DT_UINT8
    }
  }
  attr {
    key: "_output_shapes"
    value {
      list {
        shape {
          unknown_rank: true
        }
        shape {
        }
      }
    }
  }
}
node {
  name: "case/cond/cond_jpeg/decode_image/cond_jpeg/cond_png/Merge"
  op: "Merge"
  input: "case/cond/cond_jpeg/decode_image/cond_jpeg/cond_png/cond_gif/Merge"
  input: "case/cond/cond_jpeg/decode_image/cond_jpeg/cond_png/DecodePng"
  attr {
    key: "N"
    value {
      i: 2
    }
  }
  attr {
    key: "T"
    value {
      type: DT_UINT8
    }
  }
  attr {
    key: "_output_shapes"
    value {
      list {
        shape {
          unknown_rank: true
        }
        shape {
        }
      }
    }
  }
}
node {
  name: "case/cond/cond_jpeg/decode_image/cond_jpeg/Merge"
  op: "Merge"
  input: "case/cond/cond_jpeg/decode_image/cond_jpeg/cond_png/Merge"
  input: "case/cond/cond_jpeg/decode_image/cond_jpeg/DecodeJpeg"
  attr {
    key: "N"
    value {
      i: 2
    }
  }
  attr {
    key: "T"
    value {
      type: DT_UINT8
    }
  }
  attr {
    key: "_output_shapes"
    value {
      list {
        shape {
          unknown_rank: true
        }
        shape {
        }
      }
    }
  }
}
node {
  name: "case/cond/cond_jpeg/Merge"
  op: "Merge"
  input: "case/cond/cond_jpeg/decode_image/cond_jpeg/Merge"
  input: "case/cond/cond_jpeg/DecodeJpeg"
  attr {
    key: "N"
    value {
      i: 2
    }
  }
  attr {
    key: "T"
    value {
      type: DT_UINT8
    }
  }
  attr {
    key: "_output_shapes"
    value {
      list {
        shape {
          unknown_rank: true
        }
        shape {
        }
      }
    }
  }
}
node {
  name: "case/cond/Merge"
  op: "Merge"
  input: "case/cond/cond_jpeg/Merge"
  input: "case/cond/DecodeRaw"
  attr {
    key: "N"
    value {
      i: 2
    }
  }
  attr {
    key: "T"
    value {
      type: DT_UINT8
    }
  }
  attr {
    key: "_output_shapes"
    value {
      list {
        shape {
          dim {
            size: -1
          }
          dim {
            size: -1
          }
          dim {
            size: 3
          }
        }
        shape {
        }
      }
    }
  }
}
node {
  name: "Reshape_3/shape"
  op: "Const"
  attr {
    key: "_output_shapes"
    value {
      list {
        shape {
          dim {
            size: 3
          }
        }
      }
    }
  }
  attr {
    key: "dtype"
    value {
      type: DT_INT32
    }
  }
  attr {
    key: "value"
    value {
      tensor {
        dtype: DT_INT32
        tensor_shape {
          dim {
            size: 3
          }
        }
        tensor_content: "\200\000\000\000\200\000\000\000\003\000\000\000"
      }
    }
  }
}
node {
  name: "Reshape_3"
  op: "Reshape"
  input: "case/cond/Merge"
  input: "Reshape_3/shape"
  attr {
    key: "T"
    value {
      type: DT_UINT8
    }
  }
  attr {
    key: "Tshape"
    value {
      type: DT_INT32
    }
  }
  attr {
    key: "_output_shapes"
    value {
      list {
        shape {
          dim {
            size: 128
          }
          dim {
            size: 128
          }
          dim {
            size: 3
          }
        }
      }
    }
  }
}
node {
  name: "distort_image/Const"
  op: "Const"
  attr {
    key: "_output_shapes"
    value {
      list {
        shape {
          dim {
            size: 1
          }
          dim {
            size: 1
          }
          dim {
            size: 4
          }
        }
      }
    }
  }
  attr {
    key: "dtype"
    value {
      type: DT_FLOAT
    }
  }
  attr {
    key: "value"
    value {
      tensor {
        dtype: DT_FLOAT
        tensor_shape {
          dim {
            size: 1
          }
          dim {
            size: 1
          }
          dim {
            size: 4
          }
        }
        tensor_content: "\000\000\000\000\000\000\000\000\000\000\200?\000\000\200?"
      }
    }
  }
}
node {
  name: "distort_image/convert_image/Cast"
  op: "Cast"
  input: "Reshape_3"
  attr {
    key: "DstT"
    value {
      type: DT_FLOAT
    }
  }
  attr {
    key: "SrcT"
    value {
      type: DT_UINT8
    }
  }
  attr {
    key: "_output_shapes"
    value {
      list {
        shape {
          dim {
            size: 128
          }
          dim {
            size: 128
          }
          dim {
            size: 3
          }
        }
      }
    }
  }
}
node {
  name: "distort_image/convert_image/y"
  op: "Const"
  attr {
    key: "_output_shapes"
    value {
      list {
        shape {
        }
      }
    }
  }
  attr {
    key: "dtype"
    value {
      type: DT_FLOAT
    }
  }
  attr {
    key: "value"
    value {
      tensor {
        dtype: DT_FLOAT
        tensor_shape {
        }
        float_val: 0.003921568859368563
      }
    }
  }
}
node {
  name: "distort_image/convert_image"
  op: "Mul"
  input: "distort_image/convert_image/Cast"
  input: "distort_image/convert_image/y"
  attr {
    key: "T"
    value {
      type: DT_FLOAT
    }
  }
  attr {
    key: "_output_shapes"
    value {
      list {
        shape {
          dim {
            size: 128
          }
          dim {
            size: 128
          }
          dim {
            size: 3
          }
        }
      }
    }
  }
}
node {
  name: "distort_image/ExpandDims/dim"
  op: "Const"
  attr {
    key: "_output_shapes"
    value {
      list {
        shape {
        }
      }
    }
  }
  attr {
    key: "dtype"
    value {
      type: DT_INT32
    }
  }
  attr {
    key: "value"
    value {
      tensor {
        dtype: DT_INT32
        tensor_shape {
        }
        int_val: 0
      }
    }
  }
}
node {
  name: "distort_image/ExpandDims"
  op: "ExpandDims"
  input: "distort_image/convert_image"
  input: "distort_image/ExpandDims/dim"
  attr {
    key: "T"
    value {
      type: DT_FLOAT
    }
  }
  attr {
    key: "Tdim"
    value {
      type: DT_INT32
    }
  }
  attr {
    key: "_output_shapes"
    value {
      list {
        shape {
          dim {
            size: 1
          }
          dim {
            size: 128
          }
          dim {
            size: 128
          }
          dim {
            size: 3
          }
        }
      }
    }
  }
}
node {
  name: "distort_image/DrawBoundingBoxes"
  op: "DrawBoundingBoxes"
  input: "distort_image/ExpandDims"
  input: "distort_image/Const"
  attr {
    key: "T"
    value {
      type: DT_FLOAT
    }
  }
  attr {
    key: "_output_shapes"
    value {
      list {
        shape {
          dim {
            size: 1
          }
          dim {
            size: 128
          }
          dim {
            size: 128
          }
          dim {
            size: 3
          }
        }
      }
    }
  }
}
node {
  name: "distort_image/image_with_bounding_boxes/tag"
  op: "Const"
  attr {
    key: "_output_shapes"
    value {
      list {
        shape {
        }
      }
    }
  }
  attr {
    key: "dtype"
    value {
      type: DT_STRING
    }
  }
  attr {
    key: "value"
    value {
      tensor {
        dtype: DT_STRING
        tensor_shape {
        }
        string_val: "distort_image/image_with_bounding_boxes"
      }
    }
  }
}
node {
  name: "distort_image/image_with_bounding_boxes"
  op: "ImageSummary"
  input: "distort_image/image_with_bounding_boxes/tag"
  input: "distort_image/DrawBoundingBoxes"
  attr {
    key: "T"
    value {
      type: DT_FLOAT
    }
  }
  attr {
    key: "_output_shapes"
    value {
      list {
        shape {
        }
      }
    }
  }
  attr {
    key: "bad_color"
    value {
      tensor {
        dtype: DT_UINT8
        tensor_shape {
          dim {
            size: 4
          }
        }
        int_val: 255
        int_val: 0
        int_val: 0
        int_val: 255
      }
    }
  }
  attr {
    key: "max_images"
    value {
      i: 3
    }
  }
}
node {
  name: "distort_image/distorted_bounding_box_crop/Shape"
  op: "Const"
  attr {
    key: "_output_shapes"
    value {
      list {
        shape {
          dim {
            size: 3
          }
        }
      }
    }
  }
  attr {
    key: "dtype"
    value {
      type: DT_INT32
    }
  }
  attr {
    key: "value"
    value {
      tensor {
        dtype: DT_INT32
        tensor_shape {
          dim {
            size: 3
          }
        }
        tensor_content: "\200\000\000\000\200\000\000\000\003\000\000\000"
      }
    }
  }
}
node {
  name: "distort_image/distorted_bounding_box_crop/sample_distorted_bounding_box/SampleDistortedBoundingBoxV2/min_object_covered"
  op: "Const"
  attr {
    key: "_output_shapes"
    value {
      list {
        shape {
        }
      }
    }
  }
  attr {
    key: "dtype"
    value {
      type: DT_FLOAT
    }
  }
  attr {
    key: "value"
    value {
      tensor {
        dtype: DT_FLOAT
        tensor_shape {
        }
        float_val: 0.5
      }
    }
  }
}
node {
  name: "distort_image/distorted_bounding_box_crop/sample_distorted_bounding_box/SampleDistortedBoundingBoxV2"
  op: "SampleDistortedBoundingBoxV2"
  input: "distort_image/distorted_bounding_box_crop/Shape"
  input: "distort_image/Const"
  input: "distort_image/distorted_bounding_box_crop/sample_distorted_bounding_box/SampleDistortedBoundingBoxV2/min_object_covered"
  attr {
    key: "T"
    value {
      type: DT_INT32
    }
  }
  attr {
    key: "_output_shapes"
    value {
      list {
        shape {
          dim {
            size: 3
          }
        }
        shape {
          dim {
            size: 3
          }
        }
        shape {
          dim {
            size: 1
          }
          dim {
            size: 1
          }
          dim {
            size: 4
          }
        }
      }
    }
  }
  attr {
    key: "area_range"
    value {
      list {
        f: 0.30000001192092896
        f: 1.0
      }
    }
  }
  attr {
    key: "aspect_ratio_range"
    value {
      list {
        f: 0.75
        f: 1.3300000429153442
      }
    }
  }
  attr {
    key: "max_attempts"
    value {
      i: 100
    }
  }
  attr {
    key: "seed"
    value {
      i: 0
    }
  }
  attr {
    key: "seed2"
    value {
      i: 0
    }
  }
  attr {
    key: "use_image_if_no_bounding_boxes"
    value {
      b: true
    }
  }
}
node {
  name: "distort_image/distorted_bounding_box_crop/Slice"
  op: "Slice"
  input: "distort_image/convert_image"
  input: "distort_image/distorted_bounding_box_crop/sample_distorted_bounding_box/SampleDistortedBoundingBoxV2"
  input: "distort_image/distorted_bounding_box_crop/sample_distorted_bounding_box/SampleDistortedBoundingBoxV2:1"
  attr {
    key: "Index"
    value {
      type: DT_INT32
    }
  }
  attr {
    key: "T"
    value {
      type: DT_FLOAT
    }
  }
  attr {
    key: "_output_shapes"
    value {
      list {
        shape {
          dim {
            size: -1
          }
          dim {
            size: -1
          }
          dim {
            size: 3
          }
        }
      }
    }
  }
}
node {
  name: "distort_image/ExpandDims_1/dim"
  op: "Const"
  attr {
    key: "_output_shapes"
    value {
      list {
        shape {
        }
      }
    }
  }
  attr {
    key: "dtype"
    value {
      type: DT_INT32
    }
  }
  attr {
    key: "value"
    value {
      tensor {
        dtype: DT_INT32
        tensor_shape {
        }
        int_val: 0
      }
    }
  }
}
node {
  name: "distort_image/ExpandDims_1"
  op: "ExpandDims"
  input: "distort_image/convert_image"
  input: "distort_image/ExpandDims_1/dim"
  attr {
    key: "T"
    value {
      type: DT_FLOAT
    }
  }
  attr {
    key: "Tdim"
    value {
      type: DT_INT32
    }
  }
  attr {
    key: "_output_shapes"
    value {
      list {
        shape {
          dim {
            size: 1
          }
          dim {
            size: 128
          }
          dim {
            size: 128
          }
          dim {
            size: 3
          }
        }
      }
    }
  }
}
node {
  name: "distort_image/DrawBoundingBoxes_1"
  op: "DrawBoundingBoxes"
  input: "distort_image/ExpandDims_1"
  input: "distort_image/distorted_bounding_box_crop/sample_distorted_bounding_box/SampleDistortedBoundingBoxV2:2"
  attr {
    key: "T"
    value {
      type: DT_FLOAT
    }
  }
  attr {
    key: "_output_shapes"
    value {
      list {
        shape {
          dim {
            size: 1
          }
          dim {
            size: 128
          }
          dim {
            size: 128
          }
          dim {
            size: 3
          }
        }
      }
    }
  }
}
node {
  name: "distort_image/images_with_distorted_bounding_box/tag"
  op: "Const"
  attr {
    key: "_output_shapes"
    value {
      list {
        shape {
        }
      }
    }
  }
  attr {
    key: "dtype"
    value {
      type: DT_STRING
    }
  }
  attr {
    key: "value"
    value {
      tensor {
        dtype: DT_STRING
        tensor_shape {
        }
        string_val: "distort_image/images_with_distorted_bounding_box"
      }
    }
  }
}
node {
  name: "distort_image/images_with_distorted_bounding_box"
  op: "ImageSummary"
  input: "distort_image/images_with_distorted_bounding_box/tag"
  input: "distort_image/DrawBoundingBoxes_1"
  attr {
    key: "T"
    value {
      type: DT_FLOAT
    }
  }
  attr {
    key: "_output_shapes"
    value {
      list {
        shape {
        }
      }
    }
  }
  attr {
    key: "bad_color"
    value {
      tensor {
        dtype: DT_UINT8
        tensor_shape {
          dim {
            size: 4
          }
        }
        int_val: 255
        int_val: 0
        int_val: 0
        int_val: 255
      }
    }
  }
  attr {
    key: "max_images"
    value {
      i: 3
    }
  }
}
node {
  name: "distort_image/random_uniform/shape"
  op: "Const"
  attr {
    key: "_output_shapes"
    value {
      list {
        shape {
          dim {
          }
        }
      }
    }
  }
  attr {
    key: "dtype"
    value {
      type: DT_INT32
    }
  }
  attr {
    key: "value"
    value {
      tensor {
        dtype: DT_INT32
        tensor_shape {
          dim {
          }
        }
      }
    }
  }
}
node {
  name: "distort_image/random_uniform/min"
  op: "Const"
  attr {
    key: "_output_shapes"
    value {
      list {
        shape {
        }
      }
    }
  }
  attr {
    key: "dtype"
    value {
      type: DT_INT32
    }
  }
  attr {
    key: "value"
    value {
      tensor {
        dtype: DT_INT32
        tensor_shape {
        }
        int_val: 0
      }
    }
  }
}
node {
  name: "distort_image/random_uniform/max"
  op: "Const"
  attr {
    key: "_output_shapes"
    value {
      list {
        shape {
        }
      }
    }
  }
  attr {
    key: "dtype"
    value {
      type: DT_INT32
    }
  }
  attr {
    key: "value"
    value {
      tensor {
        dtype: DT_INT32
        tensor_shape {
        }
        int_val: 1
      }
    }
  }
}
node {
  name: "distort_image/random_uniform"
  op: "RandomUniformInt"
  input: "distort_image/random_uniform/shape"
  input: "distort_image/random_uniform/min"
  input: "distort_image/random_uniform/max"
  attr {
    key: "T"
    value {
      type: DT_INT32
    }
  }
  attr {
    key: "Tout"
    value {
      type: DT_INT32
    }
  }
  attr {
    key: "_output_shapes"
    value {
      list {
        shape {
        }
      }
    }
  }
  attr {
    key: "seed"
    value {
      i: 0
    }
  }
  attr {
    key: "seed2"
    value {
      i: 0
    }
  }
}
node {
  name: "distort_image/Equal/y"
  op: "Const"
  attr {
    key: "_output_shapes"
    value {
      list {
        shape {
        }
      }
    }
  }
  attr {
    key: "dtype"
    value {
      type: DT_INT32
    }
  }
  attr {
    key: "value"
    value {
      tensor {
        dtype: DT_INT32
        tensor_shape {
        }
        int_val: 0
      }
    }
  }
}
node {
  name: "distort_image/Equal"
  op: "Equal"
  input: "distort_image/random_uniform"
  input: "distort_image/Equal/y"
  attr {
    key: "T"
    value {
      type: DT_INT32
    }
  }
  attr {
    key: "_output_shapes"
    value {
      list {
        shape {
        }
      }
    }
  }
}
node {
  name: "distort_image/Switch"
  op: "Switch"
  input: "distort_image/distorted_bounding_box_crop/Slice"
  input: "distort_image/Equal"
  attr {
    key: "T"
    value {
      type: DT_FLOAT
    }
  }
  attr {
    key: "_output_shapes"
    value {
      list {
        shape {
          dim {
            size: -1
          }
          dim {
            size: -1
          }
          dim {
            size: 3
          }
        }
        shape {
          dim {
            size: -1
          }
          dim {
            size: -1
          }
          dim {
            size: 3
          }
        }
      }
    }
  }
}
node {
  name: "distort_image/resize_images/ExpandDims/dim"
  op: "Const"
  attr {
    key: "_output_shapes"
    value {
      list {
        shape {
        }
      }
    }
  }
  attr {
    key: "dtype"
    value {
      type: DT_INT32
    }
  }
  attr {
    key: "value"
    value {
      tensor {
        dtype: DT_INT32
        tensor_shape {
        }
        int_val: 0
      }
    }
  }
}
node {
  name: "distort_image/resize_images/ExpandDims"
  op: "ExpandDims"
  input: "distort_image/Switch:1"
  input: "distort_image/resize_images/ExpandDims/dim"
  attr {
    key: "T"
    value {
      type: DT_FLOAT
    }
  }
  attr {
    key: "Tdim"
    value {
      type: DT_INT32
    }
  }
  attr {
    key: "_output_shapes"
    value {
      list {
        shape {
          dim {
            size: 1
          }
          dim {
            size: -1
          }
          dim {
            size: -1
          }
          dim {
            size: 3
          }
        }
      }
    }
  }
}
node {
  name: "distort_image/resize_images/size"
  op: "Const"
  attr {
    key: "_output_shapes"
    value {
      list {
        shape {
          dim {
            size: 2
          }
        }
      }
    }
  }
  attr {
    key: "dtype"
    value {
      type: DT_INT32
    }
  }
  attr {
    key: "value"
    value {
      tensor {
        dtype: DT_INT32
        tensor_shape {
          dim {
            size: 2
          }
        }
        tensor_content: "\200\000\000\000\200\000\000\000"
      }
    }
  }
}
node {
  name: "distort_image/resize_images/ResizeBilinear"
  op: "ResizeBilinear"
  input: "distort_image/resize_images/ExpandDims"
  input: "distort_image/resize_images/size"
  attr {
    key: "T"
    value {
      type: DT_FLOAT
    }
  }
  attr {
    key: "_output_shapes"
    value {
      list {
        shape {
          dim {
            size: 1
          }
          dim {
            size: 128
          }
          dim {
            size: 128
          }
          dim {
            size: 3
          }
        }
      }
    }
  }
  attr {
    key: "align_corners"
    value {
      b: false
    }
  }
}
node {
  name: "distort_image/resize_images/Squeeze"
  op: "Squeeze"
  input: "distort_image/resize_images/ResizeBilinear"
  attr {
    key: "T"
    value {
      type: DT_FLOAT
    }
  }
  attr {
    key: "_output_shapes"
    value {
      list {
        shape {
          dim {
            size: 128
          }
          dim {
            size: 128
          }
          dim {
            size: 3
          }
        }
      }
    }
  }
  attr {
    key: "squeeze_dims"
    value {
      list {
        i: 0
      }
    }
  }
}
node {
  name: "distort_image/Merge"
  op: "Merge"
  input: "distort_image/resize_images/Squeeze"
  attr {
    key: "N"
    value {
      i: 1
    }
  }
  attr {
    key: "T"
    value {
      type: DT_FLOAT
    }
  }
  attr {
    key: "_output_shapes"
    value {
      list {
        shape {
          dim {
            size: 128
          }
          dim {
            size: 128
          }
          dim {
            size: 3
          }
        }
        shape {
        }
      }
    }
  }
}
node {
  name: "distort_image/ExpandDims_2/dim"
  op: "Const"
  attr {
    key: "_output_shapes"
    value {
      list {
        shape {
        }
      }
    }
  }
  attr {
    key: "dtype"
    value {
      type: DT_INT32
    }
  }
  attr {
    key: "value"
    value {
      tensor {
        dtype: DT_INT32
        tensor_shape {
        }
        int_val: 0
      }
    }
  }
}
node {
  name: "distort_image/ExpandDims_2"
  op: "ExpandDims"
  input: "distort_image/Merge"
  input: "distort_image/ExpandDims_2/dim"
  attr {
    key: "T"
    value {
      type: DT_FLOAT
    }
  }
  attr {
    key: "Tdim"
    value {
      type: DT_INT32
    }
  }
  attr {
    key: "_output_shapes"
    value {
      list {
        shape {
          dim {
            size: 1
          }
          dim {
            size: 128
          }
          dim {
            size: 128
          }
          dim {
            size: 3
          }
        }
      }
    }
  }
}
node {
  name: "distort_image/cropped_resized_image/tag"
  op: "Const"
  attr {
    key: "_output_shapes"
    value {
      list {
        shape {
        }
      }
    }
  }
  attr {
    key: "dtype"
    value {
      type: DT_STRING
    }
  }
  attr {
    key: "value"
    value {
      tensor {
        dtype: DT_STRING
        tensor_shape {
        }
        string_val: "distort_image/cropped_resized_image"
      }
    }
  }
}
node {
  name: "distort_image/cropped_resized_image"
  op: "ImageSummary"
  input: "distort_image/cropped_resized_image/tag"
  input: "distort_image/ExpandDims_2"
  attr {
    key: "T"
    value {
      type: DT_FLOAT
    }
  }
  attr {
    key: "_output_shapes"
    value {
      list {
        shape {
        }
      }
    }
  }
  attr {
    key: "bad_color"
    value {
      tensor {
        dtype: DT_UINT8
        tensor_shape {
          dim {
            size: 4
          }
        }
        int_val: 255
        int_val: 0
        int_val: 0
        int_val: 255
      }
    }
  }
  attr {
    key: "max_images"
    value {
      i: 3
    }
  }
}
node {
  name: "distort_image/random_flip_left_right/control_dependency"
  op: "Identity"
  input: "distort_image/Merge"
  attr {
    key: "T"
    value {
      type: DT_FLOAT
    }
  }
  attr {
    key: "_class"
    value {
      list {
        s: "loc:@distort_image/Merge"
      }
    }
  }
  attr {
    key: "_output_shapes"
    value {
      list {
        shape {
          dim {
            size: 128
          }
          dim {
            size: 128
          }
          dim {
            size: 3
          }
        }
      }
    }
  }
}
node {
  name: "distort_image/random_flip_left_right/random_uniform/shape"
  op: "Const"
  attr {
    key: "_output_shapes"
    value {
      list {
        shape {
          dim {
          }
        }
      }
    }
  }
  attr {
    key: "dtype"
    value {
      type: DT_INT32
    }
  }
  attr {
    key: "value"
    value {
      tensor {
        dtype: DT_INT32
        tensor_shape {
          dim {
          }
        }
      }
    }
  }
}
node {
  name: "distort_image/random_flip_left_right/random_uniform/min"
  op: "Const"
  attr {
    key: "_output_shapes"
    value {
      list {
        shape {
        }
      }
    }
  }
  attr {
    key: "dtype"
    value {
      type: DT_FLOAT
    }
  }
  attr {
    key: "value"
    value {
      tensor {
        dtype: DT_FLOAT
        tensor_shape {
        }
        float_val: 0.0
      }
    }
  }
}
node {
  name: "distort_image/random_flip_left_right/random_uniform/max"
  op: "Const"
  attr {
    key: "_output_shapes"
    value {
      list {
        shape {
        }
      }
    }
  }
  attr {
    key: "dtype"
    value {
      type: DT_FLOAT
    }
  }
  attr {
    key: "value"
    value {
      tensor {
        dtype: DT_FLOAT
        tensor_shape {
        }
        float_val: 1.0
      }
    }
  }
}
node {
  name: "distort_image/random_flip_left_right/random_uniform/RandomUniform"
  op: "RandomUniform"
  input: "distort_image/random_flip_left_right/random_uniform/shape"
  attr {
    key: "T"
    value {
      type: DT_INT32
    }
  }
  attr {
    key: "_output_shapes"
    value {
      list {
        shape {
        }
      }
    }
  }
  attr {
    key: "dtype"
    value {
      type: DT_FLOAT
    }
  }
  attr {
    key: "seed"
    value {
      i: 0
    }
  }
  attr {
    key: "seed2"
    value {
      i: 0
    }
  }
}
node {
  name: "distort_image/random_flip_left_right/random_uniform/sub"
  op: "Sub"
  input: "distort_image/random_flip_left_right/random_uniform/max"
  input: "distort_image/random_flip_left_right/random_uniform/min"
  attr {
    key: "T"
    value {
      type: DT_FLOAT
    }
  }
  attr {
    key: "_output_shapes"
    value {
      list {
        shape {
        }
      }
    }
  }
}
node {
  name: "distort_image/random_flip_left_right/random_uniform/mul"
  op: "Mul"
  input: "distort_image/random_flip_left_right/random_uniform/RandomUniform"
  input: "distort_image/random_flip_left_right/random_uniform/sub"
  attr {
    key: "T"
    value {
      type: DT_FLOAT
    }
  }
  attr {
    key: "_output_shapes"
    value {
      list {
        shape {
        }
      }
    }
  }
}
node {
  name: "distort_image/random_flip_left_right/random_uniform"
  op: "Add"
  input: "distort_image/random_flip_left_right/random_uniform/mul"
  input: "distort_image/random_flip_left_right/random_uniform/min"
  attr {
    key: "T"
    value {
      type: DT_FLOAT
    }
  }
  attr {
    key: "_output_shapes"
    value {
      list {
        shape {
        }
      }
    }
  }
}
node {
  name: "distort_image/random_flip_left_right/Less/y"
  op: "Const"
  attr {
    key: "_output_shapes"
    value {
      list {
        shape {
        }
      }
    }
  }
  attr {
    key: "dtype"
    value {
      type: DT_FLOAT
    }
  }
  attr {
    key: "value"
    value {
      tensor {
        dtype: DT_FLOAT
        tensor_shape {
        }
        float_val: 0.5
      }
    }
  }
}
node {
  name: "distort_image/random_flip_left_right/Less"
  op: "Less"
  input: "distort_image/random_flip_left_right/random_uniform"
  input: "distort_image/random_flip_left_right/Less/y"
  attr {
    key: "T"
    value {
      type: DT_FLOAT
    }
  }
  attr {
    key: "_output_shapes"
    value {
      list {
        shape {
        }
      }
    }
  }
}
node {
  name: "distort_image/random_flip_left_right/Switch"
  op: "Switch"
  input: "distort_image/random_flip_left_right/Less"
  input: "distort_image/random_flip_left_right/Less"
  attr {
    key: "T"
    value {
      type: DT_BOOL
    }
  }
  attr {
    key: "_output_shapes"
    value {
      list {
        shape {
        }
        shape {
        }
      }
    }
  }
}
node {
  name: "distort_image/random_flip_left_right/switch_t"
  op: "Identity"
  input: "distort_image/random_flip_left_right/Switch:1"
  attr {
    key: "T"
    value {
      type: DT_BOOL
    }
  }
  attr {
    key: "_output_shapes"
    value {
      list {
        shape {
        }
      }
    }
  }
}
node {
  name: "distort_image/random_flip_left_right/switch_f"
  op: "Identity"
  input: "distort_image/random_flip_left_right/Switch"
  attr {
    key: "T"
    value {
      type: DT_BOOL
    }
  }
  attr {
    key: "_output_shapes"
    value {
      list {
        shape {
        }
      }
    }
  }
}
node {
  name: "distort_image/random_flip_left_right/pred_id"
  op: "Identity"
  input: "distort_image/random_flip_left_right/Less"
  attr {
    key: "T"
    value {
      type: DT_BOOL
    }
  }
  attr {
    key: "_output_shapes"
    value {
      list {
        shape {
        }
      }
    }
  }
}
node {
  name: "distort_image/random_flip_left_right/ReverseV2/axis"
  op: "Const"
  input: "^distort_image/random_flip_left_right/switch_t"
  attr {
    key: "_output_shapes"
    value {
      list {
        shape {
          dim {
            size: 1
          }
        }
      }
    }
  }
  attr {
    key: "dtype"
    value {
      type: DT_INT32
    }
  }
  attr {
    key: "value"
    value {
      tensor {
        dtype: DT_INT32
        tensor_shape {
          dim {
            size: 1
          }
        }
        int_val: 1
      }
    }
  }
}
node {
  name: "distort_image/random_flip_left_right/ReverseV2"
  op: "ReverseV2"
  input: "distort_image/random_flip_left_right/ReverseV2/Switch:1"
  input: "distort_image/random_flip_left_right/ReverseV2/axis"
  attr {
    key: "T"
    value {
      type: DT_FLOAT
    }
  }
  attr {
    key: "Tidx"
    value {
      type: DT_INT32
    }
  }
  attr {
    key: "_output_shapes"
    value {
      list {
        shape {
          dim {
            size: 128
          }
          dim {
            size: 128
          }
          dim {
            size: 3
          }
        }
      }
    }
  }
}
node {
  name: "distort_image/random_flip_left_right/ReverseV2/Switch"
  op: "Switch"
  input: "distort_image/random_flip_left_right/control_dependency"
  input: "distort_image/random_flip_left_right/pred_id"
  attr {
    key: "T"
    value {
      type: DT_FLOAT
    }
  }
  attr {
    key: "_class"
    value {
      list {
        s: "loc:@distort_image/Merge"
      }
    }
  }
  attr {
    key: "_output_shapes"
    value {
      list {
        shape {
          dim {
            size: 128
          }
          dim {
            size: 128
          }
          dim {
            size: 3
          }
        }
        shape {
          dim {
            size: 128
          }
          dim {
            size: 128
          }
          dim {
            size: 3
          }
        }
      }
    }
  }
}
node {
  name: "distort_image/random_flip_left_right/Switch_1"
  op: "Switch"
  input: "distort_image/random_flip_left_right/control_dependency"
  input: "distort_image/random_flip_left_right/pred_id"
  attr {
    key: "T"
    value {
      type: DT_FLOAT
    }
  }
  attr {
    key: "_class"
    value {
      list {
        s: "loc:@distort_image/Merge"
      }
    }
  }
  attr {
    key: "_output_shapes"
    value {
      list {
        shape {
          dim {
            size: 128
          }
          dim {
            size: 128
          }
          dim {
            size: 3
          }
        }
        shape {
          dim {
            size: 128
          }
          dim {
            size: 128
          }
          dim {
            size: 3
          }
        }
      }
    }
  }
}
node {
  name: "distort_image/random_flip_left_right/Merge"
  op: "Merge"
  input: "distort_image/random_flip_left_right/Switch_1"
  input: "distort_image/random_flip_left_right/ReverseV2"
  attr {
    key: "N"
    value {
      i: 2
    }
  }
  attr {
    key: "T"
    value {
      type: DT_FLOAT
    }
  }
  attr {
    key: "_output_shapes"
    value {
      list {
        shape {
          dim {
            size: 128
          }
          dim {
            size: 128
          }
          dim {
            size: 3
          }
        }
        shape {
        }
      }
    }
  }
}
node {
  name: "distort_image/random_uniform_1/shape"
  op: "Const"
  attr {
    key: "_output_shapes"
    value {
      list {
        shape {
          dim {
          }
        }
      }
    }
  }
  attr {
    key: "dtype"
    value {
      type: DT_INT32
    }
  }
  attr {
    key: "value"
    value {
      tensor {
        dtype: DT_INT32
        tensor_shape {
          dim {
          }
        }
      }
    }
  }
}
node {
  name: "distort_image/random_uniform_1/min"
  op: "Const"
  attr {
    key: "_output_shapes"
    value {
      list {
        shape {
        }
      }
    }
  }
  attr {
    key: "dtype"
    value {
      type: DT_INT32
    }
  }
  attr {
    key: "value"
    value {
      tensor {
        dtype: DT_INT32
        tensor_shape {
        }
        int_val: 0
      }
    }
  }
}
node {
  name: "distort_image/random_uniform_1/max"
  op: "Const"
  attr {
    key: "_output_shapes"
    value {
      list {
        shape {
        }
      }
    }
  }
  attr {
    key: "dtype"
    value {
      type: DT_INT32
    }
  }
  attr {
    key: "value"
    value {
      tensor {
        dtype: DT_INT32
        tensor_shape {
        }
        int_val: 1
      }
    }
  }
}
node {
  name: "distort_image/random_uniform_1"
  op: "RandomUniformInt"
  input: "distort_image/random_uniform_1/shape"
  input: "distort_image/random_uniform_1/min"
  input: "distort_image/random_uniform_1/max"
  attr {
    key: "T"
    value {
      type: DT_INT32
    }
  }
  attr {
    key: "Tout"
    value {
      type: DT_INT32
    }
  }
  attr {
    key: "_output_shapes"
    value {
      list {
        shape {
        }
      }
    }
  }
  attr {
    key: "seed"
    value {
      i: 0
    }
  }
  attr {
    key: "seed2"
    value {
      i: 0
    }
  }
}
node {
  name: "distort_image/Equal_1/y"
  op: "Const"
  attr {
    key: "_output_shapes"
    value {
      list {
        shape {
        }
      }
    }
  }
  attr {
    key: "dtype"
    value {
      type: DT_INT32
    }
  }
  attr {
    key: "value"
    value {
      tensor {
        dtype: DT_INT32
        tensor_shape {
        }
        int_val: 0
      }
    }
  }
}
node {
  name: "distort_image/Equal_1"
  op: "Equal"
  input: "distort_image/random_uniform_1"
  input: "distort_image/Equal_1/y"
  attr {
    key: "T"
    value {
      type: DT_INT32
    }
  }
  attr {
    key: "_output_shapes"
    value {
      list {
        shape {
        }
      }
    }
  }
}
node {
  name: "distort_image/Switch_1"
  op: "Switch"
  input: "distort_image/random_flip_left_right/Merge"
  input: "distort_image/Equal_1"
  attr {
    key: "T"
    value {
      type: DT_FLOAT
    }
  }
  attr {
    key: "_output_shapes"
    value {
      list {
        shape {
          dim {
            size: 128
          }
          dim {
            size: 128
          }
          dim {
            size: 3
          }
        }
        shape {
          dim {
            size: 128
          }
          dim {
            size: 128
          }
          dim {
            size: 3
          }
        }
      }
    }
  }
}
node {
  name: "distort_image/distort_color/random_uniform/shape"
  op: "Const"
  attr {
    key: "_output_shapes"
    value {
      list {
        shape {
          dim {
          }
        }
      }
    }
  }
  attr {
    key: "dtype"
    value {
      type: DT_INT32
    }
  }
  attr {
    key: "value"
    value {
      tensor {
        dtype: DT_INT32
        tensor_shape {
          dim {
          }
        }
      }
    }
  }
}
node {
  name: "distort_image/distort_color/random_uniform/min"
  op: "Const"
  attr {
    key: "_output_shapes"
    value {
      list {
        shape {
        }
      }
    }
  }
  attr {
    key: "dtype"
    value {
      type: DT_FLOAT
    }
  }
  attr {
    key: "value"
    value {
      tensor {
        dtype: DT_FLOAT
        tensor_shape {
        }
        float_val: -0.125490203499794
      }
    }
  }
}
node {
  name: "distort_image/distort_color/random_uniform/max"
  op: "Const"
  attr {
    key: "_output_shapes"
    value {
      list {
        shape {
        }
      }
    }
  }
  attr {
    key: "dtype"
    value {
      type: DT_FLOAT
    }
  }
  attr {
    key: "value"
    value {
      tensor {
        dtype: DT_FLOAT
        tensor_shape {
        }
        float_val: 0.125490203499794
      }
    }
  }
}
node {
  name: "distort_image/distort_color/random_uniform/RandomUniform"
  op: "RandomUniform"
  input: "distort_image/distort_color/random_uniform/shape"
  attr {
    key: "T"
    value {
      type: DT_INT32
    }
  }
  attr {
    key: "_output_shapes"
    value {
      list {
        shape {
        }
      }
    }
  }
  attr {
    key: "dtype"
    value {
      type: DT_FLOAT
    }
  }
  attr {
    key: "seed"
    value {
      i: 0
    }
  }
  attr {
    key: "seed2"
    value {
      i: 0
    }
  }
}
node {
  name: "distort_image/distort_color/random_uniform/sub"
  op: "Sub"
  input: "distort_image/distort_color/random_uniform/max"
  input: "distort_image/distort_color/random_uniform/min"
  attr {
    key: "T"
    value {
      type: DT_FLOAT
    }
  }
  attr {
    key: "_output_shapes"
    value {
      list {
        shape {
        }
      }
    }
  }
}
node {
  name: "distort_image/distort_color/random_uniform/mul"
  op: "Mul"
  input: "distort_image/distort_color/random_uniform/RandomUniform"
  input: "distort_image/distort_color/random_uniform/sub"
  attr {
    key: "T"
    value {
      type: DT_FLOAT
    }
  }
  attr {
    key: "_output_shapes"
    value {
      list {
        shape {
        }
      }
    }
  }
}
node {
  name: "distort_image/distort_color/random_uniform"
  op: "Add"
  input: "distort_image/distort_color/random_uniform/mul"
  input: "distort_image/distort_color/random_uniform/min"
  attr {
    key: "T"
    value {
      type: DT_FLOAT
    }
  }
  attr {
    key: "_output_shapes"
    value {
      list {
        shape {
        }
      }
    }
  }
}
node {
  name: "distort_image/distort_color/adjust_brightness/Identity"
  op: "Identity"
  input: "distort_image/Switch_1:1"
  attr {
    key: "T"
    value {
      type: DT_FLOAT
    }
  }
  attr {
    key: "_output_shapes"
    value {
      list {
        shape {
          dim {
            size: 128
          }
          dim {
            size: 128
          }
          dim {
            size: 3
          }
        }
      }
    }
  }
}
node {
  name: "distort_image/distort_color/adjust_brightness"
  op: "Add"
  input: "distort_image/distort_color/adjust_brightness/Identity"
  input: "distort_image/distort_color/random_uniform"
  attr {
    key: "T"
    value {
      type: DT_FLOAT
    }
  }
  attr {
    key: "_output_shapes"
    value {
      list {
        shape {
          dim {
            size: 128
          }
          dim {
            size: 128
          }
          dim {
            size: 3
          }
        }
      }
    }
  }
}
node {
  name: "distort_image/distort_color/adjust_brightness/Identity_1"
  op: "Identity"
  input: "distort_image/distort_color/adjust_brightness"
  attr {
    key: "T"
    value {
      type: DT_FLOAT
    }
  }
  attr {
    key: "_output_shapes"
    value {
      list {
        shape {
          dim {
            size: 128
          }
          dim {
            size: 128
          }
          dim {
            size: 3
          }
        }
      }
    }
  }
}
node {
  name: "distort_image/distort_color/random_uniform_1/shape"
  op: "Const"
  attr {
    key: "_output_shapes"
    value {
      list {
        shape {
          dim {
          }
        }
      }
    }
  }
  attr {
    key: "dtype"
    value {
      type: DT_INT32
    }
  }
  attr {
    key: "value"
    value {
      tensor {
        dtype: DT_INT32
        tensor_shape {
          dim {
          }
        }
      }
    }
  }
}
node {
  name: "distort_image/distort_color/random_uniform_1/min"
  op: "Const"
  attr {
    key: "_output_shapes"
    value {
      list {
        shape {
        }
      }
    }
  }
  attr {
    key: "dtype"
    value {
      type: DT_FLOAT
    }
  }
  attr {
    key: "value"
    value {
      tensor {
        dtype: DT_FLOAT
        tensor_shape {
        }
        float_val: 0.5
      }
    }
  }
}
node {
  name: "distort_image/distort_color/random_uniform_1/max"
  op: "Const"
  attr {
    key: "_output_shapes"
    value {
      list {
        shape {
        }
      }
    }
  }
  attr {
    key: "dtype"
    value {
      type: DT_FLOAT
    }
  }
  attr {
    key: "value"
    value {
      tensor {
        dtype: DT_FLOAT
        tensor_shape {
        }
        float_val: 1.5
      }
    }
  }
}
node {
  name: "distort_image/distort_color/random_uniform_1/RandomUniform"
  op: "RandomUniform"
  input: "distort_image/distort_color/random_uniform_1/shape"
  attr {
    key: "T"
    value {
      type: DT_INT32
    }
  }
  attr {
    key: "_output_shapes"
    value {
      list {
        shape {
        }
      }
    }
  }
  attr {
    key: "dtype"
    value {
      type: DT_FLOAT
    }
  }
  attr {
    key: "seed"
    value {
      i: 0
    }
  }
  attr {
    key: "seed2"
    value {
      i: 0
    }
  }
}
node {
  name: "distort_image/distort_color/random_uniform_1/sub"
  op: "Sub"
  input: "distort_image/distort_color/random_uniform_1/max"
  input: "distort_image/distort_color/random_uniform_1/min"
  attr {
    key: "T"
    value {
      type: DT_FLOAT
    }
  }
  attr {
    key: "_output_shapes"
    value {
      list {
        shape {
        }
      }
    }
  }
}
node {
  name: "distort_image/distort_color/random_uniform_1/mul"
  op: "Mul"
  input: "distort_image/distort_color/random_uniform_1/RandomUniform"
  input: "distort_image/distort_color/random_uniform_1/sub"
  attr {
    key: "T"
    value {
      type: DT_FLOAT
    }
  }
  attr {
    key: "_output_shapes"
    value {
      list {
        shape {
        }
      }
    }
  }
}
node {
  name: "distort_image/distort_color/random_uniform_1"
  op: "Add"
  input: "distort_image/distort_color/random_uniform_1/mul"
  input: "distort_image/distort_color/random_uniform_1/min"
  attr {
    key: "T"
    value {
      type: DT_FLOAT
    }
  }
  attr {
    key: "_output_shapes"
    value {
      list {
        shape {
        }
      }
    }
  }
}
node {
  name: "distort_image/distort_color/adjust_saturation/Identity"
  op: "Identity"
  input: "distort_image/distort_color/adjust_brightness/Identity_1"
  attr {
    key: "T"
    value {
      type: DT_FLOAT
    }
  }
  attr {
    key: "_output_shapes"
    value {
      list {
        shape {
          dim {
            size: 128
          }
          dim {
            size: 128
          }
          dim {
            size: 3
          }
        }
      }
    }
  }
}
node {
  name: "distort_image/distort_color/adjust_saturation/AdjustSaturation"
  op: "AdjustSaturation"
  input: "distort_image/distort_color/adjust_saturation/Identity"
  input: "distort_image/distort_color/random_uniform_1"
  attr {
    key: "_output_shapes"
    value {
      list {
        shape {
          dim {
            size: 128
          }
          dim {
            size: 128
          }
          dim {
            size: 3
          }
        }
      }
    }
  }
}
node {
  name: "distort_image/distort_color/adjust_saturation/Identity_1"
  op: "Identity"
  input: "distort_image/distort_color/adjust_saturation/AdjustSaturation"
  attr {
    key: "T"
    value {
      type: DT_FLOAT
    }
  }
  attr {
    key: "_output_shapes"
    value {
      list {
        shape {
          dim {
            size: 128
          }
          dim {
            size: 128
          }
          dim {
            size: 3
          }
        }
      }
    }
  }
}
node {
  name: "distort_image/distort_color/clip_by_value/Minimum/y"
  op: "Const"
  attr {
    key: "_output_shapes"
    value {
      list {
        shape {
        }
      }
    }
  }
  attr {
    key: "dtype"
    value {
      type: DT_FLOAT
    }
  }
  attr {
    key: "value"
    value {
      tensor {
        dtype: DT_FLOAT
        tensor_shape {
        }
        float_val: 1.0
      }
    }
  }
}
node {
  name: "distort_image/distort_color/clip_by_value/Minimum"
  op: "Minimum"
  input: "distort_image/distort_color/adjust_saturation/Identity_1"
  input: "distort_image/distort_color/clip_by_value/Minimum/y"
  attr {
    key: "T"
    value {
      type: DT_FLOAT
    }
  }
  attr {
    key: "_output_shapes"
    value {
      list {
        shape {
          dim {
            size: 128
          }
          dim {
            size: 128
          }
          dim {
            size: 3
          }
        }
      }
    }
  }
}
node {
  name: "distort_image/distort_color/clip_by_value/y"
  op: "Const"
  attr {
    key: "_output_shapes"
    value {
      list {
        shape {
        }
      }
    }
  }
  attr {
    key: "dtype"
    value {
      type: DT_FLOAT
    }
  }
  attr {
    key: "value"
    value {
      tensor {
        dtype: DT_FLOAT
        tensor_shape {
        }
        float_val: 0.0
      }
    }
  }
}
node {
  name: "distort_image/distort_color/clip_by_value"
  op: "Maximum"
  input: "distort_image/distort_color/clip_by_value/Minimum"
  input: "distort_image/distort_color/clip_by_value/y"
  attr {
    key: "T"
    value {
      type: DT_FLOAT
    }
  }
  attr {
    key: "_output_shapes"
    value {
      list {
        shape {
          dim {
            size: 128
          }
          dim {
            size: 128
          }
          dim {
            size: 3
          }
        }
      }
    }
  }
}
node {
  name: "distort_image/Merge_1"
  op: "Merge"
  input: "distort_image/distort_color/clip_by_value"
  attr {
    key: "N"
    value {
      i: 1
    }
  }
  attr {
    key: "T"
    value {
      type: DT_FLOAT
    }
  }
  attr {
    key: "_output_shapes"
    value {
      list {
        shape {
          dim {
            size: 128
          }
          dim {
            size: 128
          }
          dim {
            size: 3
          }
        }
        shape {
        }
      }
    }
  }
}
node {
  name: "distort_image/ExpandDims_3/dim"
  op: "Const"
  attr {
    key: "_output_shapes"
    value {
      list {
        shape {
        }
      }
    }
  }
  attr {
    key: "dtype"
    value {
      type: DT_INT32
    }
  }
  attr {
    key: "value"
    value {
      tensor {
        dtype: DT_INT32
        tensor_shape {
        }
        int_val: 0
      }
    }
  }
}
node {
  name: "distort_image/ExpandDims_3"
  op: "ExpandDims"
  input: "distort_image/Merge_1"
  input: "distort_image/ExpandDims_3/dim"
  attr {
    key: "T"
    value {
      type: DT_FLOAT
    }
  }
  attr {
    key: "Tdim"
    value {
      type: DT_INT32
    }
  }
  attr {
    key: "_output_shapes"
    value {
      list {
        shape {
          dim {
            size: 1
          }
          dim {
            size: 128
          }
          dim {
            size: 128
          }
          dim {
            size: 3
          }
        }
      }
    }
  }
}
node {
  name: "distort_image/final_distorted_image/tag"
  op: "Const"
  attr {
    key: "_output_shapes"
    value {
      list {
        shape {
        }
      }
    }
  }
  attr {
    key: "dtype"
    value {
      type: DT_STRING
    }
  }
  attr {
    key: "value"
    value {
      tensor {
        dtype: DT_STRING
        tensor_shape {
        }
        string_val: "distort_image/final_distorted_image"
      }
    }
  }
}
node {
  name: "distort_image/final_distorted_image"
  op: "ImageSummary"
  input: "distort_image/final_distorted_image/tag"
  input: "distort_image/ExpandDims_3"
  attr {
    key: "T"
    value {
      type: DT_FLOAT
    }
  }
  attr {
    key: "_output_shapes"
    value {
      list {
        shape {
        }
      }
    }
  }
  attr {
    key: "bad_color"
    value {
      tensor {
        dtype: DT_UINT8
        tensor_shape {
          dim {
            size: 4
          }
        }
        int_val: 255
        int_val: 0
        int_val: 0
        int_val: 255
      }
    }
  }
  attr {
    key: "max_images"
    value {
      i: 3
    }
  }
}
node {
  name: "distort_image/Sub/y"
  op: "Const"
  attr {
    key: "_output_shapes"
    value {
      list {
        shape {
        }
      }
    }
  }
  attr {
    key: "dtype"
    value {
      type: DT_FLOAT
    }
  }
  attr {
    key: "value"
    value {
      tensor {
        dtype: DT_FLOAT
        tensor_shape {
        }
        float_val: 0.5
      }
    }
  }
}
node {
  name: "distort_image/Sub"
  op: "Sub"
  input: "distort_image/Merge_1"
  input: "distort_image/Sub/y"
  attr {
    key: "T"
    value {
      type: DT_FLOAT
    }
  }
  attr {
    key: "_output_shapes"
    value {
      list {
        shape {
          dim {
            size: 128
          }
          dim {
            size: 128
          }
          dim {
            size: 3
          }
        }
      }
    }
  }
}
node {
  name: "distort_image/Mul/y"
  op: "Const"
  attr {
    key: "_output_shapes"
    value {
      list {
        shape {
        }
      }
    }
  }
  attr {
    key: "dtype"
    value {
      type: DT_FLOAT
    }
  }
  attr {
    key: "value"
    value {
      tensor {
        dtype: DT_FLOAT
        tensor_shape {
        }
        float_val: 2.0
      }
    }
  }
}
node {
  name: "distort_image/Mul"
  op: "Mul"
  input: "distort_image/Sub"
  input: "distort_image/Mul/y"
  attr {
    key: "T"
    value {
      type: DT_FLOAT
    }
  }
  attr {
    key: "_output_shapes"
    value {
      list {
        shape {
          dim {
            size: 128
          }
          dim {
            size: 128
          }
          dim {
            size: 3
          }
        }
      }
    }
  }
}
node {
  name: "batch/Const"
  op: "Const"
  attr {
    key: "_output_shapes"
    value {
      list {
        shape {
        }
      }
    }
  }
  attr {
    key: "dtype"
    value {
      type: DT_BOOL
    }
  }
  attr {
    key: "value"
    value {
      tensor {
        dtype: DT_BOOL
        tensor_shape {
        }
        bool_val: true
      }
    }
  }
}
node {
  name: "batch/fifo_queue"
  op: "FIFOQueueV2"
  attr {
    key: "_output_shapes"
    value {
      list {
        shape {
        }
      }
    }
  }
  attr {
    key: "capacity"
    value {
      i: 80
    }
  }
  attr {
    key: "component_types"
    value {
      list {
        type: DT_FLOAT
        type: DT_INT64
      }
    }
  }
  attr {
    key: "container"
    value {
      s: ""
    }
  }
  attr {
    key: "shapes"
    value {
      list {
        shape {
          dim {
            size: 128
          }
          dim {
            size: 128
          }
          dim {
            size: 3
          }
        }
        shape {
        }
      }
    }
  }
  attr {
    key: "shared_name"
    value {
      s: ""
    }
  }
}
node {
  name: "batch/fifo_queue_enqueue"
  op: "QueueEnqueueV2"
  input: "batch/fifo_queue"
  input: "distort_image/Mul"
  input: "Reshape"
  attr {
    key: "Tcomponents"
    value {
      list {
        type: DT_FLOAT
        type: DT_INT64
      }
    }
  }
  attr {
    key: "timeout_ms"
    value {
      i: -1
    }
  }
}
node {
  name: "batch/fifo_queue_Close"
  op: "QueueCloseV2"
  input: "batch/fifo_queue"
  attr {
    key: "cancel_pending_enqueues"
    value {
      b: false
    }
  }
}
node {
  name: "batch/fifo_queue_Close_1"
  op: "QueueCloseV2"
  input: "batch/fifo_queue"
  attr {
    key: "cancel_pending_enqueues"
    value {
      b: true
    }
  }
}
node {
  name: "batch/fifo_queue_Size"
  op: "QueueSizeV2"
  input: "batch/fifo_queue"
  attr {
    key: "_output_shapes"
    value {
      list {
        shape {
        }
      }
    }
  }
}
node {
  name: "batch/ToFloat"
  op: "Cast"
  input: "batch/fifo_queue_Size"
  attr {
    key: "DstT"
    value {
      type: DT_FLOAT
    }
  }
  attr {
    key: "SrcT"
    value {
      type: DT_INT32
    }
  }
  attr {
    key: "_output_shapes"
    value {
      list {
        shape {
        }
      }
    }
  }
}
node {
  name: "batch/mul/y"
  op: "Const"
  attr {
    key: "_output_shapes"
    value {
      list {
        shape {
        }
      }
    }
  }
  attr {
    key: "dtype"
    value {
      type: DT_FLOAT
    }
  }
  attr {
    key: "value"
    value {
      tensor {
        dtype: DT_FLOAT
        tensor_shape {
        }
        float_val: 0.012500000186264515
      }
    }
  }
}
node {
  name: "batch/mul"
  op: "Mul"
  input: "batch/ToFloat"
  input: "batch/mul/y"
  attr {
    key: "T"
    value {
      type: DT_FLOAT
    }
  }
  attr {
    key: "_output_shapes"
    value {
      list {
        shape {
        }
      }
    }
  }
}
node {
  name: "batch/fraction_of_80_full/tags"
  op: "Const"
  attr {
    key: "_output_shapes"
    value {
      list {
        shape {
        }
      }
    }
  }
  attr {
    key: "dtype"
    value {
      type: DT_STRING
    }
  }
  attr {
    key: "value"
    value {
      tensor {
        dtype: DT_STRING
        tensor_shape {
        }
        string_val: "batch/fraction_of_80_full"
      }
    }
  }
}
node {
  name: "batch/fraction_of_80_full"
  op: "ScalarSummary"
  input: "batch/fraction_of_80_full/tags"
  input: "batch/mul"
  attr {
    key: "T"
    value {
      type: DT_FLOAT
    }
  }
  attr {
    key: "_output_shapes"
    value {
      list {
        shape {
        }
      }
    }
  }
}
node {
  name: "batch/n"
  op: "Const"
  attr {
    key: "_output_shapes"
    value {
      list {
        shape {
        }
      }
    }
  }
  attr {
    key: "dtype"
    value {
      type: DT_INT32
    }
  }
  attr {
    key: "value"
    value {
      tensor {
        dtype: DT_INT32
        tensor_shape {
        }
        int_val: 16
      }
    }
  }
}
node {
  name: "batch"
  op: "QueueDequeueManyV2"
  input: "batch/fifo_queue"
  input: "batch/n"
  attr {
    key: "_output_shapes"
    value {
      list {
        shape {
          dim {
            size: 16
          }
          dim {
            size: 128
          }
          dim {
            size: 128
          }
          dim {
            size: 3
          }
        }
        shape {
          dim {
            size: 16
          }
        }
      }
    }
  }
  attr {
    key: "component_types"
    value {
      list {
        type: DT_FLOAT
        type: DT_INT64
      }
    }
  }
  attr {
    key: "timeout_ms"
    value {
      i: -1
    }
  }
}
node {
  name: "OneHotEncoding/one_hot/Const"
  op: "Const"
  attr {
    key: "_output_shapes"
    value {
      list {
        shape {
        }
      }
    }
  }
  attr {
    key: "dtype"
    value {
      type: DT_FLOAT
    }
  }
  attr {
    key: "value"
    value {
      tensor {
        dtype: DT_FLOAT
        tensor_shape {
        }
        float_val: 1.0
      }
    }
  }
}
node {
  name: "OneHotEncoding/one_hot/Const_1"
  op: "Const"
  attr {
    key: "_output_shapes"
    value {
      list {
        shape {
        }
      }
    }
  }
  attr {
    key: "dtype"
    value {
      type: DT_FLOAT
    }
  }
  attr {
    key: "value"
    value {
      tensor {
        dtype: DT_FLOAT
        tensor_shape {
        }
        float_val: 0.0
      }
    }
  }
}
node {
  name: "OneHotEncoding/one_hot/depth"
  op: "Const"
  attr {
    key: "_output_shapes"
    value {
      list {
        shape {
        }
      }
    }
  }
  attr {
    key: "dtype"
    value {
      type: DT_INT32
    }
  }
  attr {
    key: "value"
    value {
      tensor {
        dtype: DT_INT32
        tensor_shape {
        }
        int_val: 36
      }
    }
  }
}
node {
  name: "OneHotEncoding/one_hot/on_value"
  op: "Const"
  attr {
    key: "_output_shapes"
    value {
      list {
        shape {
        }
      }
    }
  }
  attr {
    key: "dtype"
    value {
      type: DT_FLOAT
    }
  }
  attr {
    key: "value"
    value {
      tensor {
        dtype: DT_FLOAT
        tensor_shape {
        }
        float_val: 1.0
      }
    }
  }
}
node {
  name: "OneHotEncoding/one_hot/off_value"
  op: "Const"
  attr {
    key: "_output_shapes"
    value {
      list {
        shape {
        }
      }
    }
  }
  attr {
    key: "dtype"
    value {
      type: DT_FLOAT
    }
  }
  attr {
    key: "value"
    value {
      tensor {
        dtype: DT_FLOAT
        tensor_shape {
        }
        float_val: 0.0
      }
    }
  }
}
node {
  name: "OneHotEncoding/one_hot"
  op: "OneHot"
  input: "batch:1"
  input: "OneHotEncoding/one_hot/depth"
  input: "OneHotEncoding/one_hot/on_value"
  input: "OneHotEncoding/one_hot/off_value"
  attr {
    key: "T"
    value {
      type: DT_FLOAT
    }
  }
  attr {
    key: "TI"
    value {
      type: DT_INT64
    }
  }
  attr {
    key: "_output_shapes"
    value {
      list {
        shape {
          dim {
            size: 16
          }
          dim {
            size: 36
          }
        }
      }
    }
  }
  attr {
    key: "axis"
    value {
      i: -1
    }
  }
}
node {
  name: "MobilenetV1/Conv2d_0/weights/Initializer/truncated_normal/shape"
  op: "Const"
  attr {
    key: "_class"
    value {
      list {
        s: "loc:@MobilenetV1/Conv2d_0/weights"
      }
    }
  }
  attr {
    key: "_output_shapes"
    value {
      list {
        shape {
          dim {
            size: 4
          }
        }
      }
    }
  }
  attr {
    key: "dtype"
    value {
      type: DT_INT32
    }
  }
  attr {
    key: "value"
    value {
      tensor {
        dtype: DT_INT32
        tensor_shape {
          dim {
            size: 4
          }
        }
        tensor_content: "\003\000\000\000\003\000\000\000\003\000\000\000\030\000\000\000"
      }
    }
  }
}
node {
  name: "MobilenetV1/Conv2d_0/weights/Initializer/truncated_normal/mean"
  op: "Const"
  attr {
    key: "_class"
    value {
      list {
        s: "loc:@MobilenetV1/Conv2d_0/weights"
      }
    }
  }
  attr {
    key: "_output_shapes"
    value {
      list {
        shape {
        }
      }
    }
  }
  attr {
    key: "dtype"
    value {
      type: DT_FLOAT
    }
  }
  attr {
    key: "value"
    value {
      tensor {
        dtype: DT_FLOAT
        tensor_shape {
        }
        float_val: 0.0
      }
    }
  }
}
node {
  name: "MobilenetV1/Conv2d_0/weights/Initializer/truncated_normal/stddev"
  op: "Const"
  attr {
    key: "_class"
    value {
      list {
        s: "loc:@MobilenetV1/Conv2d_0/weights"
      }
    }
  }
  attr {
    key: "_output_shapes"
    value {
      list {
        shape {
        }
      }
    }
  }
  attr {
    key: "dtype"
    value {
      type: DT_FLOAT
    }
  }
  attr {
    key: "value"
    value {
      tensor {
        dtype: DT_FLOAT
        tensor_shape {
        }
        float_val: 0.09000000357627869
      }
    }
  }
}
node {
  name: "MobilenetV1/Conv2d_0/weights/Initializer/truncated_normal/TruncatedNormal"
  op: "TruncatedNormal"
  input: "MobilenetV1/Conv2d_0/weights/Initializer/truncated_normal/shape"
  attr {
    key: "T"
    value {
      type: DT_INT32
    }
  }
  attr {
    key: "_class"
    value {
      list {
        s: "loc:@MobilenetV1/Conv2d_0/weights"
      }
    }
  }
  attr {
    key: "_output_shapes"
    value {
      list {
        shape {
          dim {
            size: 3
          }
          dim {
            size: 3
          }
          dim {
            size: 3
          }
          dim {
            size: 24
          }
        }
      }
    }
  }
  attr {
    key: "dtype"
    value {
      type: DT_FLOAT
    }
  }
  attr {
    key: "seed"
    value {
      i: 0
    }
  }
  attr {
    key: "seed2"
    value {
      i: 0
    }
  }
}
node {
  name: "MobilenetV1/Conv2d_0/weights/Initializer/truncated_normal/mul"
  op: "Mul"
  input: "MobilenetV1/Conv2d_0/weights/Initializer/truncated_normal/TruncatedNormal"
  input: "MobilenetV1/Conv2d_0/weights/Initializer/truncated_normal/stddev"
  attr {
    key: "T"
    value {
      type: DT_FLOAT
    }
  }
  attr {
    key: "_class"
    value {
      list {
        s: "loc:@MobilenetV1/Conv2d_0/weights"
      }
    }
  }
  attr {
    key: "_output_shapes"
    value {
      list {
        shape {
          dim {
            size: 3
          }
          dim {
            size: 3
          }
          dim {
            size: 3
          }
          dim {
            size: 24
          }
        }
      }
    }
  }
}
node {
  name: "MobilenetV1/Conv2d_0/weights/Initializer/truncated_normal"
  op: "Add"
  input: "MobilenetV1/Conv2d_0/weights/Initializer/truncated_normal/mul"
  input: "MobilenetV1/Conv2d_0/weights/Initializer/truncated_normal/mean"
  attr {
    key: "T"
    value {
      type: DT_FLOAT
    }
  }
  attr {
    key: "_class"
    value {
      list {
        s: "loc:@MobilenetV1/Conv2d_0/weights"
      }
    }
  }
  attr {
    key: "_output_shapes"
    value {
      list {
        shape {
          dim {
            size: 3
          }
          dim {
            size: 3
          }
          dim {
            size: 3
          }
          dim {
            size: 24
          }
        }
      }
    }
  }
}
node {
  name: "MobilenetV1/Conv2d_0/weights"
  op: "VariableV2"
  attr {
    key: "_class"
    value {
      list {
        s: "loc:@MobilenetV1/Conv2d_0/weights"
      }
    }
  }
  attr {
    key: "_output_shapes"
    value {
      list {
        shape {
          dim {
            size: 3
          }
          dim {
            size: 3
          }
          dim {
            size: 3
          }
          dim {
            size: 24
          }
        }
      }
    }
  }
  attr {
    key: "container"
    value {
      s: ""
    }
  }
  attr {
    key: "dtype"
    value {
      type: DT_FLOAT
    }
  }
  attr {
    key: "shape"
    value {
      shape {
        dim {
          size: 3
        }
        dim {
          size: 3
        }
        dim {
          size: 3
        }
        dim {
          size: 24
        }
      }
    }
  }
  attr {
    key: "shared_name"
    value {
      s: ""
    }
  }
}
node {
  name: "MobilenetV1/Conv2d_0/weights/Assign"
  op: "Assign"
  input: "MobilenetV1/Conv2d_0/weights"
  input: "MobilenetV1/Conv2d_0/weights/Initializer/truncated_normal"
  attr {
    key: "T"
    value {
      type: DT_FLOAT
    }
  }
  attr {
    key: "_class"
    value {
      list {
        s: "loc:@MobilenetV1/Conv2d_0/weights"
      }
    }
  }
  attr {
    key: "_output_shapes"
    value {
      list {
        shape {
          dim {
            size: 3
          }
          dim {
            size: 3
          }
          dim {
            size: 3
          }
          dim {
            size: 24
          }
        }
      }
    }
  }
  attr {
    key: "use_locking"
    value {
      b: true
    }
  }
  attr {
    key: "validate_shape"
    value {
      b: true
    }
  }
}
node {
  name: "MobilenetV1/Conv2d_0/weights/read"
  op: "Identity"
  input: "MobilenetV1/Conv2d_0/weights"
  attr {
    key: "T"
    value {
      type: DT_FLOAT
    }
  }
  attr {
    key: "_class"
    value {
      list {
        s: "loc:@MobilenetV1/Conv2d_0/weights"
      }
    }
  }
  attr {
    key: "_output_shapes"
    value {
      list {
        shape {
          dim {
            size: 3
          }
          dim {
            size: 3
          }
          dim {
            size: 3
          }
          dim {
            size: 24
          }
        }
      }
    }
  }
}
node {
  name: "MobilenetV1/MobilenetV1/Conv2d_0/kernel/Regularizer/l2_regularizer/scale"
  op: "Const"
  attr {
    key: "_class"
    value {
      list {
        s: "loc:@MobilenetV1/Conv2d_0/weights"
      }
    }
  }
  attr {
    key: "_output_shapes"
    value {
      list {
        shape {
        }
      }
    }
  }
  attr {
    key: "dtype"
    value {
      type: DT_FLOAT
    }
  }
  attr {
    key: "value"
    value {
      tensor {
        dtype: DT_FLOAT
        tensor_shape {
        }
        float_val: 3.9999998989515007e-05
      }
    }
  }
}
node {
  name: "MobilenetV1/MobilenetV1/Conv2d_0/kernel/Regularizer/l2_regularizer/L2Loss"
  op: "L2Loss"
  input: "MobilenetV1/Conv2d_0/weights/read"
  attr {
    key: "T"
    value {
      type: DT_FLOAT
    }
  }
  attr {
    key: "_class"
    value {
      list {
        s: "loc:@MobilenetV1/Conv2d_0/weights"
      }
    }
  }
  attr {
    key: "_output_shapes"
    value {
      list {
        shape {
        }
      }
    }
  }
}
node {
  name: "MobilenetV1/MobilenetV1/Conv2d_0/kernel/Regularizer/l2_regularizer"
  op: "Mul"
  input: "MobilenetV1/MobilenetV1/Conv2d_0/kernel/Regularizer/l2_regularizer/scale"
  input: "MobilenetV1/MobilenetV1/Conv2d_0/kernel/Regularizer/l2_regularizer/L2Loss"
  attr {
    key: "T"
    value {
      type: DT_FLOAT
    }
  }
  attr {
    key: "_class"
    value {
      list {
        s: "loc:@MobilenetV1/Conv2d_0/weights"
      }
    }
  }
  attr {
    key: "_output_shapes"
    value {
      list {
        shape {
        }
      }
    }
  }
}
node {
  name: "MobilenetV1/MobilenetV1/Conv2d_0/dilation_rate"
  op: "Const"
  attr {
    key: "_output_shapes"
    value {
      list {
        shape {
          dim {
            size: 2
          }
        }
      }
    }
  }
  attr {
    key: "dtype"
    value {
      type: DT_INT32
    }
  }
  attr {
    key: "value"
    value {
      tensor {
        dtype: DT_INT32
        tensor_shape {
          dim {
            size: 2
          }
        }
        tensor_content: "\001\000\000\000\001\000\000\000"
      }
    }
  }
}
node {
  name: "MobilenetV1/MobilenetV1/Conv2d_0/Conv2D"
  op: "Conv2D"
  input: "batch"
  input: "MobilenetV1/Conv2d_0/weights/read"
  attr {
    key: "T"
    value {
      type: DT_FLOAT
    }
  }
  attr {
    key: "_output_shapes"
    value {
      list {
        shape {
          dim {
            size: 16
          }
          dim {
            size: 64
          }
          dim {
            size: 64
          }
          dim {
            size: 24
          }
        }
      }
    }
  }
  attr {
    key: "data_format"
    value {
      s: "NHWC"
    }
  }
  attr {
    key: "dilations"
    value {
      list {
        i: 1
        i: 1
        i: 1
        i: 1
      }
    }
  }
  attr {
    key: "padding"
    value {
      s: "SAME"
    }
  }
  attr {
    key: "strides"
    value {
      list {
        i: 1
        i: 2
        i: 2
        i: 1
      }
    }
  }
  attr {
    key: "use_cudnn_on_gpu"
    value {
      b: true
    }
  }
}
node {
  name: "MobilenetV1/Conv2d_0/BatchNorm/gamma/Initializer/ones/shape_as_tensor"
  op: "Const"
  attr {
    key: "_class"
    value {
      list {
        s: "loc:@MobilenetV1/Conv2d_0/BatchNorm/gamma"
      }
    }
  }
  attr {
    key: "_output_shapes"
    value {
      list {
        shape {
          dim {
            size: 1
          }
        }
      }
    }
  }
  attr {
    key: "dtype"
    value {
      type: DT_INT32
    }
  }
  attr {
    key: "value"
    value {
      tensor {
        dtype: DT_INT32
        tensor_shape {
          dim {
            size: 1
          }
        }
        int_val: 24
      }
    }
  }
}
node {
  name: "MobilenetV1/Conv2d_0/BatchNorm/gamma/Initializer/ones/Const"
  op: "Const"
  attr {
    key: "_class"
    value {
      list {
        s: "loc:@MobilenetV1/Conv2d_0/BatchNorm/gamma"
      }
    }
  }
  attr {
    key: "_output_shapes"
    value {
      list {
        shape {
        }
      }
    }
  }
  attr {
    key: "dtype"
    value {
      type: DT_FLOAT
    }
  }
  attr {
    key: "value"
    value {
      tensor {
        dtype: DT_FLOAT
        tensor_shape {
        }
        float_val: 1.0
      }
    }
  }
}
node {
  name: "MobilenetV1/Conv2d_0/BatchNorm/gamma/Initializer/ones"
  op: "Fill"
  input: "MobilenetV1/Conv2d_0/BatchNorm/gamma/Initializer/ones/shape_as_tensor"
  input: "MobilenetV1/Conv2d_0/BatchNorm/gamma/Initializer/ones/Const"
  attr {
    key: "T"
    value {
      type: DT_FLOAT
    }
  }
  attr {
    key: "_class"
    value {
      list {
        s: "loc:@MobilenetV1/Conv2d_0/BatchNorm/gamma"
      }
    }
  }
  attr {
    key: "_output_shapes"
    value {
      list {
        shape {
          dim {
            size: 24
          }
        }
      }
    }
  }
  attr {
    key: "index_type"
    value {
      type: DT_INT32
    }
  }
}
node {
  name: "MobilenetV1/Conv2d_0/BatchNorm/gamma"
  op: "VariableV2"
  attr {
    key: "_class"
    value {
      list {
        s: "loc:@MobilenetV1/Conv2d_0/BatchNorm/gamma"
      }
    }
  }
  attr {
    key: "_output_shapes"
    value {
      list {
        shape {
          dim {
            size: 24
          }
        }
      }
    }
  }
  attr {
    key: "container"
    value {
      s: ""
    }
  }
  attr {
    key: "dtype"
    value {
      type: DT_FLOAT
    }
  }
  attr {
    key: "shape"
    value {
      shape {
        dim {
          size: 24
        }
      }
    }
  }
  attr {
    key: "shared_name"
    value {
      s: ""
    }
  }
}
node {
  name: "MobilenetV1/Conv2d_0/BatchNorm/gamma/Assign"
  op: "Assign"
  input: "MobilenetV1/Conv2d_0/BatchNorm/gamma"
  input: "MobilenetV1/Conv2d_0/BatchNorm/gamma/Initializer/ones"
  attr {
    key: "T"
    value {
      type: DT_FLOAT
    }
  }
  attr {
    key: "_class"
    value {
      list {
        s: "loc:@MobilenetV1/Conv2d_0/BatchNorm/gamma"
      }
    }
  }
  attr {
    key: "_output_shapes"
    value {
      list {
        shape {
          dim {
            size: 24
          }
        }
      }
    }
  }
  attr {
    key: "use_locking"
    value {
      b: true
    }
  }
  attr {
    key: "validate_shape"
    value {
      b: true
    }
  }
}
node {
  name: "MobilenetV1/Conv2d_0/BatchNorm/gamma/read"
  op: "Identity"
  input: "MobilenetV1/Conv2d_0/BatchNorm/gamma"
  attr {
    key: "T"
    value {
      type: DT_FLOAT
    }
  }
  attr {
    key: "_class"
    value {
      list {
        s: "loc:@MobilenetV1/Conv2d_0/BatchNorm/gamma"
      }
    }
  }
  attr {
    key: "_output_shapes"
    value {
      list {
        shape {
          dim {
            size: 24
          }
        }
      }
    }
  }
}
node {
  name: "MobilenetV1/Conv2d_0/BatchNorm/beta/Initializer/zeros/shape_as_tensor"
  op: "Const"
  attr {
    key: "_class"
    value {
      list {
        s: "loc:@MobilenetV1/Conv2d_0/BatchNorm/beta"
      }
    }
  }
  attr {
    key: "_output_shapes"
    value {
      list {
        shape {
          dim {
            size: 1
          }
        }
      }
    }
  }
  attr {
    key: "dtype"
    value {
      type: DT_INT32
    }
  }
  attr {
    key: "value"
    value {
      tensor {
        dtype: DT_INT32
        tensor_shape {
          dim {
            size: 1
          }
        }
        int_val: 24
      }
    }
  }
}
node {
  name: "MobilenetV1/Conv2d_0/BatchNorm/beta/Initializer/zeros/Const"
  op: "Const"
  attr {
    key: "_class"
    value {
      list {
        s: "loc:@MobilenetV1/Conv2d_0/BatchNorm/beta"
      }
    }
  }
  attr {
    key: "_output_shapes"
    value {
      list {
        shape {
        }
      }
    }
  }
  attr {
    key: "dtype"
    value {
      type: DT_FLOAT
    }
  }
  attr {
    key: "value"
    value {
      tensor {
        dtype: DT_FLOAT
        tensor_shape {
        }
        float_val: 0.0
      }
    }
  }
}
node {
  name: "MobilenetV1/Conv2d_0/BatchNorm/beta/Initializer/zeros"
  op: "Fill"
  input: "MobilenetV1/Conv2d_0/BatchNorm/beta/Initializer/zeros/shape_as_tensor"
  input: "MobilenetV1/Conv2d_0/BatchNorm/beta/Initializer/zeros/Const"
  attr {
    key: "T"
    value {
      type: DT_FLOAT
    }
  }
  attr {
    key: "_class"
    value {
      list {
        s: "loc:@MobilenetV1/Conv2d_0/BatchNorm/beta"
      }
    }
  }
  attr {
    key: "_output_shapes"
    value {
      list {
        shape {
          dim {
            size: 24
          }
        }
      }
    }
  }
  attr {
    key: "index_type"
    value {
      type: DT_INT32
    }
  }
}
node {
  name: "MobilenetV1/Conv2d_0/BatchNorm/beta"
  op: "VariableV2"
  attr {
    key: "_class"
    value {
      list {
        s: "loc:@MobilenetV1/Conv2d_0/BatchNorm/beta"
      }
    }
  }
  attr {
    key: "_output_shapes"
    value {
      list {
        shape {
          dim {
            size: 24
          }
        }
      }
    }
  }
  attr {
    key: "container"
    value {
      s: ""
    }
  }
  attr {
    key: "dtype"
    value {
      type: DT_FLOAT
    }
  }
  attr {
    key: "shape"
    value {
      shape {
        dim {
          size: 24
        }
      }
    }
  }
  attr {
    key: "shared_name"
    value {
      s: ""
    }
  }
}
node {
  name: "MobilenetV1/Conv2d_0/BatchNorm/beta/Assign"
  op: "Assign"
  input: "MobilenetV1/Conv2d_0/BatchNorm/beta"
  input: "MobilenetV1/Conv2d_0/BatchNorm/beta/Initializer/zeros"
  attr {
    key: "T"
    value {
      type: DT_FLOAT
    }
  }
  attr {
    key: "_class"
    value {
      list {
        s: "loc:@MobilenetV1/Conv2d_0/BatchNorm/beta"
      }
    }
  }
  attr {
    key: "_output_shapes"
    value {
      list {
        shape {
          dim {
            size: 24
          }
        }
      }
    }
  }
  attr {
    key: "use_locking"
    value {
      b: true
    }
  }
  attr {
    key: "validate_shape"
    value {
      b: true
    }
  }
}
node {
  name: "MobilenetV1/Conv2d_0/BatchNorm/beta/read"
  op: "Identity"
  input: "MobilenetV1/Conv2d_0/BatchNorm/beta"
  attr {
    key: "T"
    value {
      type: DT_FLOAT
    }
  }
  attr {
    key: "_class"
    value {
      list {
        s: "loc:@MobilenetV1/Conv2d_0/BatchNorm/beta"
      }
    }
  }
  attr {
    key: "_output_shapes"
    value {
      list {
        shape {
          dim {
            size: 24
          }
        }
      }
    }
  }
}
node {
  name: "MobilenetV1/Conv2d_0/BatchNorm/moving_mean/Initializer/zeros/shape_as_tensor"
  op: "Const"
  attr {
    key: "_class"
    value {
      list {
        s: "loc:@MobilenetV1/Conv2d_0/BatchNorm/moving_mean"
      }
    }
  }
  attr {
    key: "_output_shapes"
    value {
      list {
        shape {
          dim {
            size: 1
          }
        }
      }
    }
  }
  attr {
    key: "dtype"
    value {
      type: DT_INT32
    }
  }
  attr {
    key: "value"
    value {
      tensor {
        dtype: DT_INT32
        tensor_shape {
          dim {
            size: 1
          }
        }
        int_val: 24
      }
    }
  }
}
node {
  name: "MobilenetV1/Conv2d_0/BatchNorm/moving_mean/Initializer/zeros/Const"
  op: "Const"
  attr {
    key: "_class"
    value {
      list {
        s: "loc:@MobilenetV1/Conv2d_0/BatchNorm/moving_mean"
      }
    }
  }
  attr {
    key: "_output_shapes"
    value {
      list {
        shape {
        }
      }
    }
  }
  attr {
    key: "dtype"
    value {
      type: DT_FLOAT
    }
  }
  attr {
    key: "value"
    value {
      tensor {
        dtype: DT_FLOAT
        tensor_shape {
        }
        float_val: 0.0
      }
    }
  }
}
node {
  name: "MobilenetV1/Conv2d_0/BatchNorm/moving_mean/Initializer/zeros"
  op: "Fill"
  input: "MobilenetV1/Conv2d_0/BatchNorm/moving_mean/Initializer/zeros/shape_as_tensor"
  input: "MobilenetV1/Conv2d_0/BatchNorm/moving_mean/Initializer/zeros/Const"
  attr {
    key: "T"
    value {
      type: DT_FLOAT
    }
  }
  attr {
    key: "_class"
    value {
      list {
        s: "loc:@MobilenetV1/Conv2d_0/BatchNorm/moving_mean"
      }
    }
  }
  attr {
    key: "_output_shapes"
    value {
      list {
        shape {
          dim {
            size: 24
          }
        }
      }
    }
  }
  attr {
    key: "index_type"
    value {
      type: DT_INT32
    }
  }
}
node {
  name: "MobilenetV1/Conv2d_0/BatchNorm/moving_mean"
  op: "VariableV2"
  attr {
    key: "_class"
    value {
      list {
        s: "loc:@MobilenetV1/Conv2d_0/BatchNorm/moving_mean"
      }
    }
  }
  attr {
    key: "_output_shapes"
    value {
      list {
        shape {
          dim {
            size: 24
          }
        }
      }
    }
  }
  attr {
    key: "container"
    value {
      s: ""
    }
  }
  attr {
    key: "dtype"
    value {
      type: DT_FLOAT
    }
  }
  attr {
    key: "shape"
    value {
      shape {
        dim {
          size: 24
        }
      }
    }
  }
  attr {
    key: "shared_name"
    value {
      s: ""
    }
  }
}
node {
  name: "MobilenetV1/Conv2d_0/BatchNorm/moving_mean/Assign"
  op: "Assign"
  input: "MobilenetV1/Conv2d_0/BatchNorm/moving_mean"
  input: "MobilenetV1/Conv2d_0/BatchNorm/moving_mean/Initializer/zeros"
  attr {
    key: "T"
    value {
      type: DT_FLOAT
    }
  }
  attr {
    key: "_class"
    value {
      list {
        s: "loc:@MobilenetV1/Conv2d_0/BatchNorm/moving_mean"
      }
    }
  }
  attr {
    key: "_output_shapes"
    value {
      list {
        shape {
          dim {
            size: 24
          }
        }
      }
    }
  }
  attr {
    key: "use_locking"
    value {
      b: true
    }
  }
  attr {
    key: "validate_shape"
    value {
      b: true
    }
  }
}
node {
  name: "MobilenetV1/Conv2d_0/BatchNorm/moving_mean/read"
  op: "Identity"
  input: "MobilenetV1/Conv2d_0/BatchNorm/moving_mean"
  attr {
    key: "T"
    value {
      type: DT_FLOAT
    }
  }
  attr {
    key: "_class"
    value {
      list {
        s: "loc:@MobilenetV1/Conv2d_0/BatchNorm/moving_mean"
      }
    }
  }
  attr {
    key: "_output_shapes"
    value {
      list {
        shape {
          dim {
            size: 24
          }
        }
      }
    }
  }
}
node {
  name: "MobilenetV1/Conv2d_0/BatchNorm/moving_variance/Initializer/ones/shape_as_tensor"
  op: "Const"
  attr {
    key: "_class"
    value {
      list {
        s: "loc:@MobilenetV1/Conv2d_0/BatchNorm/moving_variance"
      }
    }
  }
  attr {
    key: "_output_shapes"
    value {
      list {
        shape {
          dim {
            size: 1
          }
        }
      }
    }
  }
  attr {
    key: "dtype"
    value {
      type: DT_INT32
    }
  }
  attr {
    key: "value"
    value {
      tensor {
        dtype: DT_INT32
        tensor_shape {
          dim {
            size: 1
          }
        }
        int_val: 24
      }
    }
  }
}
node {
  name: "MobilenetV1/Conv2d_0/BatchNorm/moving_variance/Initializer/ones/Const"
  op: "Const"
  attr {
    key: "_class"
    value {
      list {
        s: "loc:@MobilenetV1/Conv2d_0/BatchNorm/moving_variance"
      }
    }
  }
  attr {
    key: "_output_shapes"
    value {
      list {
        shape {
        }
      }
    }
  }
  attr {
    key: "dtype"
    value {
      type: DT_FLOAT
    }
  }
  attr {
    key: "value"
    value {
      tensor {
        dtype: DT_FLOAT
        tensor_shape {
        }
        float_val: 1.0
      }
    }
  }
}
node {
  name: "MobilenetV1/Conv2d_0/BatchNorm/moving_variance/Initializer/ones"
  op: "Fill"
  input: "MobilenetV1/Conv2d_0/BatchNorm/moving_variance/Initializer/ones/shape_as_tensor"
  input: "MobilenetV1/Conv2d_0/BatchNorm/moving_variance/Initializer/ones/Const"
  attr {
    key: "T"
    value {
      type: DT_FLOAT
    }
  }
  attr {
    key: "_class"
    value {
      list {
        s: "loc:@MobilenetV1/Conv2d_0/BatchNorm/moving_variance"
      }
    }
  }
  attr {
    key: "_output_shapes"
    value {
      list {
        shape {
          dim {
            size: 24
          }
        }
      }
    }
  }
  attr {
    key: "index_type"
    value {
      type: DT_INT32
    }
  }
}
node {
  name: "MobilenetV1/Conv2d_0/BatchNorm/moving_variance"
  op: "VariableV2"
  attr {
    key: "_class"
    value {
      list {
        s: "loc:@MobilenetV1/Conv2d_0/BatchNorm/moving_variance"
      }
    }
  }
  attr {
    key: "_output_shapes"
    value {
      list {
        shape {
          dim {
            size: 24
          }
        }
      }
    }
  }
  attr {
    key: "container"
    value {
      s: ""
    }
  }
  attr {
    key: "dtype"
    value {
      type: DT_FLOAT
    }
  }
  attr {
    key: "shape"
    value {
      shape {
        dim {
          size: 24
        }
      }
    }
  }
  attr {
    key: "shared_name"
    value {
      s: ""
    }
  }
}
node {
  name: "MobilenetV1/Conv2d_0/BatchNorm/moving_variance/Assign"
  op: "Assign"
  input: "MobilenetV1/Conv2d_0/BatchNorm/moving_variance"
  input: "MobilenetV1/Conv2d_0/BatchNorm/moving_variance/Initializer/ones"
  attr {
    key: "T"
    value {
      type: DT_FLOAT
    }
  }
  attr {
    key: "_class"
    value {
      list {
        s: "loc:@MobilenetV1/Conv2d_0/BatchNorm/moving_variance"
      }
    }
  }
  attr {
    key: "_output_shapes"
    value {
      list {
        shape {
          dim {
            size: 24
          }
        }
      }
    }
  }
  attr {
    key: "use_locking"
    value {
      b: true
    }
  }
  attr {
    key: "validate_shape"
    value {
      b: true
    }
  }
}
node {
  name: "MobilenetV1/Conv2d_0/BatchNorm/moving_variance/read"
  op: "Identity"
  input: "MobilenetV1/Conv2d_0/BatchNorm/moving_variance"
  attr {
    key: "T"
    value {
      type: DT_FLOAT
    }
  }
  attr {
    key: "_class"
    value {
      list {
        s: "loc:@MobilenetV1/Conv2d_0/BatchNorm/moving_variance"
      }
    }
  }
  attr {
    key: "_output_shapes"
    value {
      list {
        shape {
          dim {
            size: 24
          }
        }
      }
    }
  }
}
node {
  name: "MobilenetV1/MobilenetV1/Conv2d_0/BatchNorm/Const"
  op: "Const"
  attr {
    key: "_output_shapes"
    value {
      list {
        shape {
          dim {
          }
        }
      }
    }
  }
  attr {
    key: "dtype"
    value {
      type: DT_FLOAT
    }
  }
  attr {
    key: "value"
    value {
      tensor {
        dtype: DT_FLOAT
        tensor_shape {
          dim {
          }
        }
      }
    }
  }
}
node {
  name: "MobilenetV1/MobilenetV1/Conv2d_0/BatchNorm/Const_1"
  op: "Const"
  attr {
    key: "_output_shapes"
    value {
      list {
        shape {
          dim {
          }
        }
      }
    }
  }
  attr {
    key: "dtype"
    value {
      type: DT_FLOAT
    }
  }
  attr {
    key: "value"
    value {
      tensor {
        dtype: DT_FLOAT
        tensor_shape {
          dim {
          }
        }
      }
    }
  }
}
node {
  name: "MobilenetV1/MobilenetV1/Conv2d_0/BatchNorm/FusedBatchNorm"
  op: "FusedBatchNorm"
  input: "MobilenetV1/MobilenetV1/Conv2d_0/Conv2D"
  input: "MobilenetV1/Conv2d_0/BatchNorm/gamma/read"
  input: "MobilenetV1/Conv2d_0/BatchNorm/beta/read"
  input: "MobilenetV1/MobilenetV1/Conv2d_0/BatchNorm/Const"
  input: "MobilenetV1/MobilenetV1/Conv2d_0/BatchNorm/Const_1"
  attr {
    key: "T"
    value {
      type: DT_FLOAT
    }
  }
  attr {
    key: "_output_shapes"
    value {
      list {
        shape {
          dim {
            size: 16
          }
          dim {
            size: 64
          }
          dim {
            size: 64
          }
          dim {
            size: 24
          }
        }
        shape {
          dim {
            size: 24
          }
        }
        shape {
          dim {
            size: 24
          }
        }
        shape {
          dim {
            size: 24
          }
        }
        shape {
          dim {
            size: 24
          }
        }
      }
    }
  }
  attr {
    key: "data_format"
    value {
      s: "NHWC"
    }
  }
  attr {
    key: "epsilon"
    value {
      f: 0.0010000000474974513
    }
  }
  attr {
    key: "is_training"
    value {
      b: true
    }
  }
}
node {
  name: "MobilenetV1/MobilenetV1/Conv2d_0/BatchNorm/Const_2"
  op: "Const"
  attr {
…
    key: "_class"
    value {
      list {
        s: "loc:@MobilenetV1/Conv2d_12_depthwise/BatchNorm/beta"
      }
    }
  }
  attr {
    key: "_output_shapes"
    value {
      list {
        shape {
        }
      }
    }
  }
  attr {
    key: "dtype"
    value {
      type: DT_FLOAT
    }
  }
}
node {
  name: "init_ops/report_uninitialized_variables/IsVariableInitialized_118"
  op: "IsVariableInitialized"
  input: "MobilenetV1/Conv2d_12_depthwise/BatchNorm/moving_mean"
  attr {
    key: "_class"
    value {
      list {
        s: "loc:@MobilenetV1/Conv2d_12_depthwise/BatchNorm/moving_mean"
      }
    }
  }
  attr {
    key: "_output_shapes"
    value {
      list {
        shape {
        }
      }
    }
  }
  attr {
    key: "dtype"
    value {
      type: DT_FLOAT
    }
  }
}
node {
  name: "init_ops/report_uninitialized_variables/IsVariableInitialized_119"
  op: "IsVariableInitialized"
  input: "MobilenetV1/Conv2d_12_depthwise/BatchNorm/moving_variance"
  attr {
    key: "_class"
    value {
      list {
        s: "loc:@MobilenetV1/Conv2d_12_depthwise/BatchNorm/moving_variance"
      }
    }
  }
  attr {
    key: "_output_shapes"
    value {
      list {
        shape {
        }
      }
    }
  }
  attr {
    key: "dtype"
    value {
      type: DT_FLOAT
    }
  }
}
node {
  name: "init_ops/report_uninitialized_variables/IsVariableInitialized_120"
  op: "IsVariableInitialized"
  input: "MobilenetV1/Conv2d_12_pointwise/weights"
  attr {
    key: "_class"
    value {
      list {
        s: "loc:@MobilenetV1/Conv2d_12_pointwise/weights"
      }
    }
  }
  attr {
    key: "_output_shapes"
    value {
      list {
        shape {
        }
      }
    }
  }
  attr {
    key: "dtype"
    value {
      type: DT_FLOAT
    }
  }
}
node {
  name: "init_ops/report_uninitialized_variables/IsVariableInitialized_121"
  op: "IsVariableInitialized"
  input: "MobilenetV1/Conv2d_12_pointwise/BatchNorm/gamma"
  attr {
    key: "_class"
    value {
      list {
        s: "loc:@MobilenetV1/Conv2d_12_pointwise/BatchNorm/gamma"
      }
    }
  }
  attr {
    key: "_output_shapes"
    value {
      list {
        shape {
        }
      }
    }
  }
  attr {
    key: "dtype"
    value {
      type: DT_FLOAT
    }
  }
}
node {
  name: "init_ops/report_uninitialized_variables/IsVariableInitialized_122"
  op: "IsVariableInitialized"
  input: "MobilenetV1/Conv2d_12_pointwise/BatchNorm/beta"
  attr {
    key: "_class"
    value {
      list {
        s: "loc:@MobilenetV1/Conv2d_12_pointwise/BatchNorm/beta"
      }
    }
  }
  attr {
    key: "_output_shapes"
    value {
      list {
        shape {
        }
      }
    }
  }
  attr {
    key: "dtype"
    value {
      type: DT_FLOAT
    }
  }
}
node {
  name: "init_ops/report_uninitialized_variables/IsVariableInitialized_123"
  op: "IsVariableInitialized"
  input: "MobilenetV1/Conv2d_12_pointwise/BatchNorm/moving_mean"
  attr {
    key: "_class"
    value {
      list {
        s: "loc:@MobilenetV1/Conv2d_12_pointwise/BatchNorm/moving_mean"
      }
    }
  }
  attr {
    key: "_output_shapes"
    value {
      list {
        shape {
        }
      }
    }
  }
  attr {
    key: "dtype"
    value {
      type: DT_FLOAT
    }
  }
}
node {
  name: "init_ops/report_uninitialized_variables/IsVariableInitialized_124"
  op: "IsVariableInitialized"
  input: "MobilenetV1/Conv2d_12_pointwise/BatchNorm/moving_variance"
  attr {
    key: "_class"
    value {
      list {
        s: "loc:@MobilenetV1/Conv2d_12_pointwise/BatchNorm/moving_variance"
      }
    }
  }
  attr {
    key: "_output_shapes"
    value {
      list {
        shape {
        }
      }
    }
  }
  attr {
    key: "dtype"
    value {
      type: DT_FLOAT
    }
  }
}
node {
  name: "init_ops/report_uninitialized_variables/IsVariableInitialized_125"
  op: "IsVariableInitialized"
  input: "MobilenetV1/Conv2d_13_depthwise/depthwise_weights"
  attr {
    key: "_class"
    value {
      list {
        s: "loc:@MobilenetV1/Conv2d_13_depthwise/depthwise_weights"
      }
    }
  }
  attr {
    key: "_output_shapes"
    value {
      list {
        shape {
        }
      }
    }
  }
  attr {
    key: "dtype"
    value {
      type: DT_FLOAT
    }
  }
}
node {
  name: "init_ops/report_uninitialized_variables/IsVariableInitialized_126"
  op: "IsVariableInitialized"
  input: "MobilenetV1/Conv2d_13_depthwise/BatchNorm/gamma"
  attr {
    key: "_class"
    value {
      list {
        s: "loc:@MobilenetV1/Conv2d_13_depthwise/BatchNorm/gamma"
      }
    }
  }
  attr {
    key: "_output_shapes"
    value {
      list {
        shape {
        }
      }
    }
  }
  attr {
    key: "dtype"
    value {
      type: DT_FLOAT
    }
  }
}
node {
  name: "init_ops/report_uninitialized_variables/IsVariableInitialized_127"
  op: "IsVariableInitialized"
  input: "MobilenetV1/Conv2d_13_depthwise/BatchNorm/beta"
  attr {
    key: "_class"
    value {
      list {
        s: "loc:@MobilenetV1/Conv2d_13_depthwise/BatchNorm/beta"
      }
    }
  }
  attr {
    key: "_output_shapes"
    value {
      list {
        shape {
        }
      }
    }
  }
  attr {
    key: "dtype"
    value {
      type: DT_FLOAT
    }
  }
}
node {
  name: "init_ops/report_uninitialized_variables/IsVariableInitialized_128"
  op: "IsVariableInitialized"
  input: "MobilenetV1/Conv2d_13_depthwise/BatchNorm/moving_mean"
  attr {
    key: "_class"
    value {
      list {
        s: "loc:@MobilenetV1/Conv2d_13_depthwise/BatchNorm/moving_mean"
      }
    }
  }
  attr {
    key: "_output_shapes"
    value {
      list {
        shape {
        }
      }
    }
  }
  attr {
    key: "dtype"
    value {
      type: DT_FLOAT
    }
  }
}
node {
  name: "init_ops/report_uninitialized_variables/IsVariableInitialized_129"
  op: "IsVariableInitialized"
  input: "MobilenetV1/Conv2d_13_depthwise/BatchNorm/moving_variance"
  attr {
    key: "_class"
    value {
      list {
        s: "loc:@MobilenetV1/Conv2d_13_depthwise/BatchNorm/moving_variance"
      }
    }
  }
  attr {
    key: "_output_shapes"
    value {
      list {
        shape {
        }
      }
    }
  }
  attr {
    key: "dtype"
    value {
      type: DT_FLOAT
    }
  }
}
node {
  name: "init_ops/report_uninitialized_variables/IsVariableInitialized_130"
  op: "IsVariableInitialized"
  input: "MobilenetV1/Conv2d_13_pointwise/weights"
  attr {
    key: "_class"
    value {
      list {
        s: "loc:@MobilenetV1/Conv2d_13_pointwise/weights"
      }
    }
  }
  attr {
    key: "_output_shapes"
    value {
      list {
        shape {
        }
      }
    }
  }
  attr {
    key: "dtype"
    value {
      type: DT_FLOAT
    }
  }
}
node {
  name: "init_ops/report_uninitialized_variables/IsVariableInitialized_131"
  op: "IsVariableInitialized"
  input: "MobilenetV1/Conv2d_13_pointwise/BatchNorm/gamma"
  attr {
    key: "_class"
    value {
      list {
        s: "loc:@MobilenetV1/Conv2d_13_pointwise/BatchNorm/gamma"
      }
    }
  }
  attr {
    key: "_output_shapes"
    value {
      list {
        shape {
        }
      }
    }
  }
  attr {
    key: "dtype"
    value {
      type: DT_FLOAT
    }
  }
}
node {
  name: "init_ops/report_uninitialized_variables/IsVariableInitialized_132"
  op: "IsVariableInitialized"
  input: "MobilenetV1/Conv2d_13_pointwise/BatchNorm/beta"
  attr {
    key: "_class"
    value {
      list {
        s: "loc:@MobilenetV1/Conv2d_13_pointwise/BatchNorm/beta"
      }
    }
  }
  attr {
    key: "_output_shapes"
    value {
      list {
        shape {
        }
      }
    }
  }
  attr {
    key: "dtype"
    value {
      type: DT_FLOAT
    }
  }
}
node {
  name: "init_ops/report_uninitialized_variables/IsVariableInitialized_133"
  op: "IsVariableInitialized"
  input: "MobilenetV1/Conv2d_13_pointwise/BatchNorm/moving_mean"
  attr {
    key: "_class"
    value {
      list {
        s: "loc:@MobilenetV1/Conv2d_13_pointwise/BatchNorm/moving_mean"
      }
    }
  }
  attr {
    key: "_output_shapes"
    value {
      list {
        shape {
        }
      }
    }
  }
  attr {
    key: "dtype"
    value {
      type: DT_FLOAT
    }
  }
}
node {
  name: "init_ops/report_uninitialized_variables/IsVariableInitialized_134"
  op: "IsVariableInitialized"
  input: "MobilenetV1/Conv2d_13_pointwise/BatchNorm/moving_variance"
  attr {
    key: "_class"
    value {
      list {
        s: "loc:@MobilenetV1/Conv2d_13_pointwise/BatchNorm/moving_variance"
      }
    }
  }
  attr {
    key: "_output_shapes"
    value {
      list {
        shape {
        }
      }
    }
  }
  attr {
    key: "dtype"
    value {
      type: DT_FLOAT
    }
  }
}
node {
  name: "init_ops/report_uninitialized_variables/IsVariableInitialized_135"
  op: "IsVariableInitialized"
  input: "MobilenetV1/Logits/Conv2d_1c_1x1/weights"
  attr {
    key: "_class"
    value {
      list {
        s: "loc:@MobilenetV1/Logits/Conv2d_1c_1x1/weights"
      }
    }
  }
  attr {
    key: "_output_shapes"
    value {
      list {
        shape {
        }
      }
    }
  }
  attr {
    key: "dtype"
    value {
      type: DT_FLOAT
    }
  }
}
node {
  name: "init_ops/report_uninitialized_variables/IsVariableInitialized_136"
  op: "IsVariableInitialized"
  input: "MobilenetV1/Logits/Conv2d_1c_1x1/biases"
  attr {
    key: "_class"
    value {
      list {
        s: "loc:@MobilenetV1/Logits/Conv2d_1c_1x1/biases"
      }
    }
  }
  attr {
    key: "_output_shapes"
    value {
      list {
        shape {
        }
      }
    }
  }
  attr {
    key: "dtype"
    value {
      type: DT_FLOAT
    }
  }
}
node {
  name: "init_ops/report_uninitialized_variables/IsVariableInitialized_137"
  op: "IsVariableInitialized"
  input: "global_step"
  attr {
    key: "_class"
    value {
      list {
        s: "loc:@global_step"
      }
    }
  }
  attr {
    key: "_output_shapes"
    value {
      list {
        shape {
        }
      }
    }
  }
  attr {
    key: "dtype"
    value {
      type: DT_INT64
    }
  }
}
node {
  name: "init_ops/report_uninitialized_variables/stack"
  op: "Pack"
  input: "init_ops/report_uninitialized_variables/IsVariableInitialized"
  input: "init_ops/report_uninitialized_variables/IsVariableInitialized_1"
  input: "init_ops/report_uninitialized_variables/IsVariableInitialized_2"
  input: "init_ops/report_uninitialized_variables/IsVariableInitialized_3"
  input: "init_ops/report_uninitialized_variables/IsVariableInitialized_4"
  input: "init_ops/report_uninitialized_variables/IsVariableInitialized_5"
  input: "init_ops/report_uninitialized_variables/IsVariableInitialized_6"
  input: "init_ops/report_uninitialized_variables/IsVariableInitialized_7"
  input: "init_ops/report_uninitialized_variables/IsVariableInitialized_8"
  input: "init_ops/report_uninitialized_variables/IsVariableInitialized_9"
  input: "init_ops/report_uninitialized_variables/IsVariableInitialized_10"
  input: "init_ops/report_uninitialized_variables/IsVariableInitialized_11"
  input: "init_ops/report_uninitialized_variables/IsVariableInitialized_12"
  input: "init_ops/report_uninitialized_variables/IsVariableInitialized_13"
  input: "init_ops/report_uninitialized_variables/IsVariableInitialized_14"
  input: "init_ops/report_uninitialized_variables/IsVariableInitialized_15"
  input: "init_ops/report_uninitialized_variables/IsVariableInitialized_16"
  input: "init_ops/report_uninitialized_variables/IsVariableInitialized_17"
  input: "init_ops/report_uninitialized_variables/IsVariableInitialized_18"
  input: "init_ops/report_uninitialized_variables/IsVariableInitialized_19"
  input: "init_ops/report_uninitialized_variables/IsVariableInitialized_20"
  input: "init_ops/report_uninitialized_variables/IsVariableInitialized_21"
  input: "init_ops/report_uninitialized_variables/IsVariableInitialized_22"
  input: "init_ops/report_uninitialized_variables/IsVariableInitialized_23"
  input: "init_ops/report_uninitialized_variables/IsVariableInitialized_24"
  input: "init_ops/report_uninitialized_variables/IsVariableInitialized_25"
  input: "init_ops/report_uninitialized_variables/IsVariableInitialized_26"
  input: "init_ops/report_uninitialized_variables/IsVariableInitialized_27"
  input: "init_ops/report_uninitialized_variables/IsVariableInitialized_28"
  input: "init_ops/report_uninitialized_variables/IsVariableInitialized_29"
  input: "init_ops/report_uninitialized_variables/IsVariableInitialized_30"
  input: "init_ops/report_uninitialized_variables/IsVariableInitialized_31"
  input: "init_ops/report_uninitialized_variables/IsVariableInitialized_32"
  input: "init_ops/report_uninitialized_variables/IsVariableInitialized_33"
  input: "init_ops/report_uninitialized_variables/IsVariableInitialized_34"
  input: "init_ops/report_uninitialized_variables/IsVariableInitialized_35"
  input: "init_ops/report_uninitialized_variables/IsVariableInitialized_36"
  input: "init_ops/report_uninitialized_variables/IsVariableInitialized_37"
  input: "init_ops/report_uninitialized_variables/IsVariableInitialized_38"
  input: "init_ops/report_uninitialized_variables/IsVariableInitialized_39"
  input: "init_ops/report_uninitialized_variables/IsVariableInitialized_40"
  input: "init_ops/report_uninitialized_variables/IsVariableInitialized_41"
  input: "init_ops/report_uninitialized_variables/IsVariableInitialized_42"
  input: "init_ops/report_uninitialized_variables/IsVariableInitialized_43"
  input: "init_ops/report_uninitialized_variables/IsVariableInitialized_44"
  input: "init_ops/report_uninitialized_variables/IsVariableInitialized_45"
  input: "init_ops/report_uninitialized_variables/IsVariableInitialized_46"
  input: "init_ops/report_uninitialized_variables/IsVariableInitialized_47"
  input: "init_ops/report_uninitialized_variables/IsVariableInitialized_48"
  input: "init_ops/report_uninitialized_variables/IsVariableInitialized_49"
  input: "init_ops/report_uninitialized_variables/IsVariableInitialized_50"
  input: "init_ops/report_uninitialized_variables/IsVariableInitialized_51"
  input: "init_ops/report_uninitialized_variables/IsVariableInitialized_52"
  input: "init_ops/report_uninitialized_variables/IsVariableInitialized_53"
  input: "init_ops/report_uninitialized_variables/IsVariableInitialized_54"
  input: "init_ops/report_uninitialized_variables/IsVariableInitialized_55"
  input: "init_ops/report_uninitialized_variables/IsVariableInitialized_56"
  input: "init_ops/report_uninitialized_variables/IsVariableInitialized_57"
  input: "init_ops/report_uninitialized_variables/IsVariableInitialized_58"
  input: "init_ops/report_uninitialized_variables/IsVariableInitialized_59"
  input: "init_ops/report_uninitialized_variables/IsVariableInitialized_60"
  input: "init_ops/report_uninitialized_variables/IsVariableInitialized_61"
  input: "init_ops/report_uninitialized_variables/IsVariableInitialized_62"
  input: "init_ops/report_uninitialized_variables/IsVariableInitialized_63"
  input: "init_ops/report_uninitialized_variables/IsVariableInitialized_64"
  input: "init_ops/report_uninitialized_variables/IsVariableInitialized_65"
  input: "init_ops/report_uninitialized_variables/IsVariableInitialized_66"
  input: "init_ops/report_uninitialized_variables/IsVariableInitialized_67"
  input: "init_ops/report_uninitialized_variables/IsVariableInitialized_68"
  input: "init_ops/report_uninitialized_variables/IsVariableInitialized_69"
  input: "init_ops/report_uninitialized_variables/IsVariableInitialized_70"
  input: "init_ops/report_uninitialized_variables/IsVariableInitialized_71"
  input: "init_ops/report_uninitialized_variables/IsVariableInitialized_72"
  input: "init_ops/report_uninitialized_variables/IsVariableInitialized_73"
  input: "init_ops/report_uninitialized_variables/IsVariableInitialized_74"
  input: "init_ops/report_uninitialized_variables/IsVariableInitialized_75"
  input: "init_ops/report_uninitialized_variables/IsVariableInitialized_76"
  input: "init_ops/report_uninitialized_variables/IsVariableInitialized_77"
  input: "init_ops/report_uninitialized_variables/IsVariableInitialized_78"
  input: "init_ops/report_uninitialized_variables/IsVariableInitialized_79"
  input: "init_ops/report_uninitialized_variables/IsVariableInitialized_80"
  input: "init_ops/report_uninitialized_variables/IsVariableInitialized_81"
  input: "init_ops/report_uninitialized_variables/IsVariableInitialized_82"
  input: "init_ops/report_uninitialized_variables/IsVariableInitialized_83"
  input: "init_ops/report_uninitialized_variables/IsVariableInitialized_84"
  input: "init_ops/report_uninitialized_variables/IsVariableInitialized_85"
  input: "init_ops/report_uninitialized_variables/IsVariableInitialized_86"
  input: "init_ops/report_uninitialized_variables/IsVariableInitialized_87"
  input: "init_ops/report_uninitialized_variables/IsVariableInitialized_88"
  input: "init_ops/report_uninitialized_variables/IsVariableInitialized_89"
  input: "init_ops/report_uninitialized_variables/IsVariableInitialized_90"
  input: "init_ops/report_uninitialized_variables/IsVariableInitialized_91"
  input: "init_ops/report_uninitialized_variables/IsVariableInitialized_92"
  input: "init_ops/report_uninitialized_variables/IsVariableInitialized_93"
  input: "init_ops/report_uninitialized_variables/IsVariableInitialized_94"
  input: "init_ops/report_uninitialized_variables/IsVariableInitialized_95"
  input: "init_ops/report_uninitialized_variables/IsVariableInitialized_96"
  input: "init_ops/report_uninitialized_variables/IsVariableInitialized_97"
  input: "init_ops/report_uninitialized_variables/IsVariableInitialized_98"
  input: "init_ops/report_uninitialized_variables/IsVariableInitialized_99"
  input: "init_ops/report_uninitialized_variables/IsVariableInitialized_100"
  input: "init_ops/report_uninitialized_variables/IsVariableInitialized_101"
  input: "init_ops/report_uninitialized_variables/IsVariableInitialized_102"
  input: "init_ops/report_uninitialized_variables/IsVariableInitialized_103"
  input: "init_ops/report_uninitialized_variables/IsVariableInitialized_104"
  input: "init_ops/report_uninitialized_variables/IsVariableInitialized_105"
  input: "init_ops/report_uninitialized_variables/IsVariableInitialized_106"
  input: "init_ops/report_uninitialized_variables/IsVariableInitialized_107"
  input: "init_ops/report_uninitialized_variables/IsVariableInitialized_108"
  input: "init_ops/report_uninitialized_variables/IsVariableInitialized_109"
  input: "init_ops/report_uninitialized_variables/IsVariableInitialized_110"
  input: "init_ops/report_uninitialized_variables/IsVariableInitialized_111"
  input: "init_ops/report_uninitialized_variables/IsVariableInitialized_112"
  input: "init_ops/report_uninitialized_variables/IsVariableInitialized_113"
  input: "init_ops/report_uninitialized_variables/IsVariableInitialized_114"
  input: "init_ops/report_uninitialized_variables/IsVariableInitialized_115"
  input: "init_ops/report_uninitialized_variables/IsVariableInitialized_116"
  input: "init_ops/report_uninitialized_variables/IsVariableInitialized_117"
  input: "init_ops/report_uninitialized_variables/IsVariableInitialized_118"
  input: "init_ops/report_uninitialized_variables/IsVariableInitialized_119"
  input: "init_ops/report_uninitialized_variables/IsVariableInitialized_120"
  input: "init_ops/report_uninitialized_variables/IsVariableInitialized_121"
  input: "init_ops/report_uninitialized_variables/IsVariableInitialized_122"
  input: "init_ops/report_uninitialized_variables/IsVariableInitialized_123"
  input: "init_ops/report_uninitialized_variables/IsVariableInitialized_124"
  input: "init_ops/report_uninitialized_variables/IsVariableInitialized_125"
  input: "init_ops/report_uninitialized_variables/IsVariableInitialized_126"
  input: "init_ops/report_uninitialized_variables/IsVariableInitialized_127"
  input: "init_ops/report_uninitialized_variables/IsVariableInitialized_128"
  input: "init_ops/report_uninitialized_variables/IsVariableInitialized_129"
  input: "init_ops/report_uninitialized_variables/IsVariableInitialized_130"
  input: "init_ops/report_uninitialized_variables/IsVariableInitialized_131"
  input: "init_ops/report_uninitialized_variables/IsVariableInitialized_132"
  input: "init_ops/report_uninitialized_variables/IsVariableInitialized_133"
  input: "init_ops/report_uninitialized_variables/IsVariableInitialized_134"
  input: "init_ops/report_uninitialized_variables/IsVariableInitialized_135"
  input: "init_ops/report_uninitialized_variables/IsVariableInitialized_136"
  input: "init_ops/report_uninitialized_variables/IsVariableInitialized_137"
  device: "/device:CPU:0"
  attr {
    key: "N"
    value {
      i: 138
    }
  }
  attr {
    key: "T"
    value {
      type: DT_BOOL
    }
  }
  attr {
    key: "_output_shapes"
    value {
      list {
        shape {
          dim {
            size: 138
          }
        }
      }
    }
  }
  attr {
    key: "axis"
    value {
      i: 0
    }
  }
}
node {
  name: "init_ops/report_uninitialized_variables/LogicalNot"
  op: "LogicalNot"
  input: "init_ops/report_uninitialized_variables/stack"
  device: "/device:CPU:0"
  attr {
    key: "_output_shapes"
    value {
      list {
        shape {
          dim {
            size: 138
          }
        }
      }
    }
  }
}
node {
  name: "init_ops/report_uninitialized_variables/Const"
  op: "Const"
  device: "/device:CPU:0"
  attr {
    key: "_output_shapes"
    value {
      list {
        shape {
          dim {
            size: 138
          }
        }
      }
    }
  }
  attr {
    key: "dtype"
    value {
      type: DT_STRING
    }
  }
  attr {
    key: "value"
    value {
      tensor {
        dtype: DT_STRING
        tensor_shape {
          dim {
            size: 138
          }
        }
        string_val: "MobilenetV1/Conv2d_0/weights"
        string_val: "MobilenetV1/Conv2d_0/BatchNorm/gamma"
        string_val: "MobilenetV1/Conv2d_0/BatchNorm/beta"
        string_val: "MobilenetV1/Conv2d_0/BatchNorm/moving_mean"
        string_val: "MobilenetV1/Conv2d_0/BatchNorm/moving_variance"
        string_val: "MobilenetV1/Conv2d_1_depthwise/depthwise_weights"
        string_val: "MobilenetV1/Conv2d_1_depthwise/BatchNorm/gamma"
        string_val: "MobilenetV1/Conv2d_1_depthwise/BatchNorm/beta"
        string_val: "MobilenetV1/Conv2d_1_depthwise/BatchNorm/moving_mean"
        string_val: "MobilenetV1/Conv2d_1_depthwise/BatchNorm/moving_variance"
        string_val: "MobilenetV1/Conv2d_1_pointwise/weights"
        string_val: "MobilenetV1/Conv2d_1_pointwise/BatchNorm/gamma"
        string_val: "MobilenetV1/Conv2d_1_pointwise/BatchNorm/beta"
        string_val: "MobilenetV1/Conv2d_1_pointwise/BatchNorm/moving_mean"
        string_val: "MobilenetV1/Conv2d_1_pointwise/BatchNorm/moving_variance"
        string_val: "MobilenetV1/Conv2d_2_depthwise/depthwise_weights"
        string_val: "MobilenetV1/Conv2d_2_depthwise/BatchNorm/gamma"
        string_val: "MobilenetV1/Conv2d_2_depthwise/BatchNorm/beta"
        string_val: "MobilenetV1/Conv2d_2_depthwise/BatchNorm/moving_mean"
        string_val: "MobilenetV1/Conv2d_2_depthwise/BatchNorm/moving_variance"
        string_val: "MobilenetV1/Conv2d_2_pointwise/weights"
        string_val: "MobilenetV1/Conv2d_2_pointwise/BatchNorm/gamma"
        string_val: "MobilenetV1/Conv2d_2_pointwise/BatchNorm/beta"
        string_val: "MobilenetV1/Conv2d_2_pointwise/BatchNorm/moving_mean"
        string_val: "MobilenetV1/Conv2d_2_pointwise/BatchNorm/moving_variance"
        string_val: "MobilenetV1/Conv2d_3_depthwise/depthwise_weights"
        string_val: "MobilenetV1/Conv2d_3_depthwise/BatchNorm/gamma"
        string_val: "MobilenetV1/Conv2d_3_depthwise/BatchNorm/beta"
        string_val: "MobilenetV1/Conv2d_3_depthwise/BatchNorm/moving_mean"
        string_val: "MobilenetV1/Conv2d_3_depthwise/BatchNorm/moving_variance"
        string_val: "MobilenetV1/Conv2d_3_pointwise/weights"
        string_val: "MobilenetV1/Conv2d_3_pointwise/BatchNorm/gamma"
        string_val: "MobilenetV1/Conv2d_3_pointwise/BatchNorm/beta"
        string_val: "MobilenetV1/Conv2d_3_pointwise/BatchNorm/moving_mean"
        string_val: "MobilenetV1/Conv2d_3_pointwise/BatchNorm/moving_variance"
        string_val: "MobilenetV1/Conv2d_4_depthwise/depthwise_weights"
        string_val: "MobilenetV1/Conv2d_4_depthwise/BatchNorm/gamma"
        string_val: "MobilenetV1/Conv2d_4_depthwise/BatchNorm/beta"
        string_val: "MobilenetV1/Conv2d_4_depthwise/BatchNorm/moving_mean"
        string_val: "MobilenetV1/Conv2d_4_depthwise/BatchNorm/moving_variance"
        string_val: "MobilenetV1/Conv2d_4_pointwise/weights"
        string_val: "MobilenetV1/Conv2d_4_pointwise/BatchNorm/gamma"
        string_val: "MobilenetV1/Conv2d_4_pointwise/BatchNorm/beta"
        string_val: "MobilenetV1/Conv2d_4_pointwise/BatchNorm/moving_mean"
        string_val: "MobilenetV1/Conv2d_4_pointwise/BatchNorm/moving_variance"
        string_val: "MobilenetV1/Conv2d_5_depthwise/depthwise_weights"
        string_val: "MobilenetV1/Conv2d_5_depthwise/BatchNorm/gamma"
        string_val: "MobilenetV1/Conv2d_5_depthwise/BatchNorm/beta"
        string_val: "MobilenetV1/Conv2d_5_depthwise/BatchNorm/moving_mean"
        string_val: "MobilenetV1/Conv2d_5_depthwise/BatchNorm/moving_variance"
        string_val: "MobilenetV1/Conv2d_5_pointwise/weights"
        string_val: "MobilenetV1/Conv2d_5_pointwise/BatchNorm/gamma"
        string_val: "MobilenetV1/Conv2d_5_pointwise/BatchNorm/beta"
        string_val: "MobilenetV1/Conv2d_5_pointwise/BatchNorm/moving_mean"
        string_val: "MobilenetV1/Conv2d_5_pointwise/BatchNorm/moving_variance"
        string_val: "MobilenetV1/Conv2d_6_depthwise/depthwise_weights"
        string_val: "MobilenetV1/Conv2d_6_depthwise/BatchNorm/gamma"
        string_val: "MobilenetV1/Conv2d_6_depthwise/BatchNorm/beta"
        string_val: "MobilenetV1/Conv2d_6_depthwise/BatchNorm/moving_mean"
        string_val: "MobilenetV1/Conv2d_6_depthwise/BatchNorm/moving_variance"
        string_val: "MobilenetV1/Conv2d_6_pointwise/weights"
        string_val: "MobilenetV1/Conv2d_6_pointwise/BatchNorm/gamma"
        string_val: "MobilenetV1/Conv2d_6_pointwise/BatchNorm/beta"
        string_val: "MobilenetV1/Conv2d_6_pointwise/BatchNorm/moving_mean"
        string_val: "MobilenetV1/Conv2d_6_pointwise/BatchNorm/moving_variance"
        string_val: "MobilenetV1/Conv2d_7_depthwise/depthwise_weights"
        string_val: "MobilenetV1/Conv2d_7_depthwise/BatchNorm/gamma"
        string_val: "MobilenetV1/Conv2d_7_depthwise/BatchNorm/beta"
        string_val: "MobilenetV1/Conv2d_7_depthwise/BatchNorm/moving_mean"
        string_val: "MobilenetV1/Conv2d_7_depthwise/BatchNorm/moving_variance"
        string_val: "MobilenetV1/Conv2d_7_pointwise/weights"
        string_val: "MobilenetV1/Conv2d_7_pointwise/BatchNorm/gamma"
        string_val: "MobilenetV1/Conv2d_7_pointwise/BatchNorm/beta"
        string_val: "MobilenetV1/Conv2d_7_pointwise/BatchNorm/moving_mean"
        string_val: "MobilenetV1/Conv2d_7_pointwise/BatchNorm/moving_variance"
        string_val: "MobilenetV1/Conv2d_8_depthwise/depthwise_weights"
        string_val: "MobilenetV1/Conv2d_8_depthwise/BatchNorm/gamma"
        string_val: "MobilenetV1/Conv2d_8_depthwise/BatchNorm/beta"
        string_val: "MobilenetV1/Conv2d_8_depthwise/BatchNorm/moving_mean"
        string_val: "MobilenetV1/Conv2d_8_depthwise/BatchNorm/moving_variance"
        string_val: "MobilenetV1/Conv2d_8_pointwise/weights"
        string_val: "MobilenetV1/Conv2d_8_pointwise/BatchNorm/gamma"
        string_val: "MobilenetV1/Conv2d_8_pointwise/BatchNorm/beta"
        string_val: "MobilenetV1/Conv2d_8_pointwise/BatchNorm/moving_mean"
        string_val: "MobilenetV1/Conv2d_8_pointwise/BatchNorm/moving_variance"
        string_val: "MobilenetV1/Conv2d_9_depthwise/depthwise_weights"
        string_val: "MobilenetV1/Conv2d_9_depthwise/BatchNorm/gamma"
        string_val: "MobilenetV1/Conv2d_9_depthwise/BatchNorm/beta"
        string_val: "MobilenetV1/Conv2d_9_depthwise/BatchNorm/moving_mean"
        string_val: "MobilenetV1/Conv2d_9_depthwise/BatchNorm/moving_variance"
        string_val: "MobilenetV1/Conv2d_9_pointwise/weights"
        string_val: "MobilenetV1/Conv2d_9_pointwise/BatchNorm/gamma"
        string_val: "MobilenetV1/Conv2d_9_pointwise/BatchNorm/beta"
        string_val: "MobilenetV1/Conv2d_9_pointwise/BatchNorm/moving_mean"
        string_val: "MobilenetV1/Conv2d_9_pointwise/BatchNorm/moving_variance"
        string_val: "MobilenetV1/Conv2d_10_depthwise/depthwise_weights"
        string_val: "MobilenetV1/Conv2d_10_depthwise/BatchNorm/gamma"
        string_val: "MobilenetV1/Conv2d_10_depthwise/BatchNorm/beta"
        string_val: "MobilenetV1/Conv2d_10_depthwise/BatchNorm/moving_mean"
        string_val: "MobilenetV1/Conv2d_10_depthwise/BatchNorm/moving_variance"
        string_val: "MobilenetV1/Conv2d_10_pointwise/weights"
        string_val: "MobilenetV1/Conv2d_10_pointwise/BatchNorm/gamma"
        string_val: "MobilenetV1/Conv2d_10_pointwise/BatchNorm/beta"
        string_val: "MobilenetV1/Conv2d_10_pointwise/BatchNorm/moving_mean"
        string_val: "MobilenetV1/Conv2d_10_pointwise/BatchNorm/moving_variance"
        string_val: "MobilenetV1/Conv2d_11_depthwise/depthwise_weights"
        string_val: "MobilenetV1/Conv2d_11_depthwise/BatchNorm/gamma"
        string_val: "MobilenetV1/Conv2d_11_depthwise/BatchNorm/beta"
        string_val: "MobilenetV1/Conv2d_11_depthwise/BatchNorm/moving_mean"
        string_val: "MobilenetV1/Conv2d_11_depthwise/BatchNorm/moving_variance"
        string_val: "MobilenetV1/Conv2d_11_pointwise/weights"
        string_val: "MobilenetV1/Conv2d_11_pointwise/BatchNorm/gamma"
        string_val: "MobilenetV1/Conv2d_11_pointwise/BatchNorm/beta"
        string_val: "MobilenetV1/Conv2d_11_pointwise/BatchNorm/moving_mean"
        string_val: "MobilenetV1/Conv2d_11_pointwise/BatchNorm/moving_variance"
        string_val: "MobilenetV1/Conv2d_12_depthwise/depthwise_weights"
        string_val: "MobilenetV1/Conv2d_12_depthwise/BatchNorm/gamma"
        string_val: "MobilenetV1/Conv2d_12_depthwise/BatchNorm/beta"
        string_val: "MobilenetV1/Conv2d_12_depthwise/BatchNorm/moving_mean"
        string_val: "MobilenetV1/Conv2d_12_depthwise/BatchNorm/moving_variance"
        string_val: "MobilenetV1/Conv2d_12_pointwise/weights"
        string_val: "MobilenetV1/Conv2d_12_pointwise/BatchNorm/gamma"
        string_val: "MobilenetV1/Conv2d_12_pointwise/BatchNorm/beta"
        string_val: "MobilenetV1/Conv2d_12_pointwise/BatchNorm/moving_mean"
        string_val: "MobilenetV1/Conv2d_12_pointwise/BatchNorm/moving_variance"
        string_val: "MobilenetV1/Conv2d_13_depthwise/depthwise_weights"
        string_val: "MobilenetV1/Conv2d_13_depthwise/BatchNorm/gamma"
        string_val: "MobilenetV1/Conv2d_13_depthwise/BatchNorm/beta"
        string_val: "MobilenetV1/Conv2d_13_depthwise/BatchNorm/moving_mean"
        string_val: "MobilenetV1/Conv2d_13_depthwise/BatchNorm/moving_variance"
        string_val: "MobilenetV1/Conv2d_13_pointwise/weights"
        string_val: "MobilenetV1/Conv2d_13_pointwise/BatchNorm/gamma"
        string_val: "MobilenetV1/Conv2d_13_pointwise/BatchNorm/beta"
        string_val: "MobilenetV1/Conv2d_13_pointwise/BatchNorm/moving_mean"
        string_val: "MobilenetV1/Conv2d_13_pointwise/BatchNorm/moving_variance"
        string_val: "MobilenetV1/Logits/Conv2d_1c_1x1/weights"
        string_val: "MobilenetV1/Logits/Conv2d_1c_1x1/biases"
        string_val: "global_step"
      }
    }
  }
}
node {
  name: "init_ops/report_uninitialized_variables/boolean_mask/Shape"
  op: "Const"
  device: "/device:CPU:0"
  attr {
    key: "_output_shapes"
    value {
      list {
        shape {
          dim {
            size: 1
          }
        }
      }
    }
  }
  attr {
    key: "dtype"
    value {
      type: DT_INT32
    }
  }
  attr {
    key: "value"
    value {
      tensor {
        dtype: DT_INT32
        tensor_shape {
          dim {
            size: 1
          }
        }
        int_val: 138
      }
    }
  }
}
node {
  name: "init_ops/report_uninitialized_variables/boolean_mask/strided_slice/stack"
  op: "Const"
  device: "/device:CPU:0"
  attr {
    key: "_output_shapes"
    value {
      list {
        shape {
          dim {
            size: 1
          }
        }
      }
    }
  }
  attr {
    key: "dtype"
    value {
      type: DT_INT32
    }
  }
  attr {
    key: "value"
    value {
      tensor {
        dtype: DT_INT32
        tensor_shape {
          dim {
            size: 1
          }
        }
        int_val: 0
      }
    }
  }
}
node {
  name: "init_ops/report_uninitialized_variables/boolean_mask/strided_slice/stack_1"
  op: "Const"
  device: "/device:CPU:0"
  attr {
    key: "_output_shapes"
    value {
      list {
        shape {
          dim {
            size: 1
          }
        }
      }
    }
  }
  attr {
    key: "dtype"
    value {
      type: DT_INT32
    }
  }
  attr {
    key: "value"
    value {
      tensor {
        dtype: DT_INT32
        tensor_shape {
          dim {
            size: 1
          }
        }
        int_val: 1
      }
    }
  }
}
node {
  name: "init_ops/report_uninitialized_variables/boolean_mask/strided_slice/stack_2"
  op: "Const"
  device: "/device:CPU:0"
  attr {
    key: "_output_shapes"
    value {
      list {
        shape {
          dim {
            size: 1
          }
        }
      }
    }
  }
  attr {
    key: "dtype"
    value {
      type: DT_INT32
    }
  }
  attr {
    key: "value"
    value {
      tensor {
        dtype: DT_INT32
        tensor_shape {
          dim {
            size: 1
          }
        }
        int_val: 1
      }
    }
  }
}
node {
  name: "init_ops/report_uninitialized_variables/boolean_mask/strided_slice"
  op: "StridedSlice"
  input: "init_ops/report_uninitialized_variables/boolean_mask/Shape"
  input: "init_ops/report_uninitialized_variables/boolean_mask/strided_slice/stack"
  input: "init_ops/report_uninitialized_variables/boolean_mask/strided_slice/stack_1"
  input: "init_ops/report_uninitialized_variables/boolean_mask/strided_slice/stack_2"
  device: "/device:CPU:0"
  attr {
    key: "Index"
    value {
      type: DT_INT32
    }
  }
  attr {
    key: "T"
    value {
      type: DT_INT32
    }
  }
  attr {
    key: "_output_shapes"
    value {
      list {
        shape {
          dim {
            size: 1
          }
        }
      }
    }
  }
  attr {
    key: "begin_mask"
    value {
      i: 0
    }
  }
  attr {
    key: "ellipsis_mask"
    value {
      i: 0
    }
  }
  attr {
    key: "end_mask"
    value {
      i: 0
    }
  }
  attr {
    key: "new_axis_mask"
    value {
      i: 0
    }
  }
  attr {
    key: "shrink_axis_mask"
    value {
      i: 0
    }
  }
}
node {
  name: "init_ops/report_uninitialized_variables/boolean_mask/Prod/reduction_indices"
  op: "Const"
  device: "/device:CPU:0"
  attr {
    key: "_output_shapes"
    value {
      list {
        shape {
          dim {
            size: 1
          }
        }
      }
    }
  }
  attr {
    key: "dtype"
    value {
      type: DT_INT32
    }
  }
  attr {
    key: "value"
    value {
      tensor {
        dtype: DT_INT32
        tensor_shape {
          dim {
            size: 1
          }
        }
        int_val: 0
      }
    }
  }
}
node {
  name: "init_ops/report_uninitialized_variables/boolean_mask/Prod"
  op: "Prod"
  input: "init_ops/report_uninitialized_variables/boolean_mask/strided_slice"
  input: "init_ops/report_uninitialized_variables/boolean_mask/Prod/reduction_indices"
  device: "/device:CPU:0"
  attr {
    key: "T"
    value {
      type: DT_INT32
    }
  }
  attr {
    key: "Tidx"
    value {
      type: DT_INT32
    }
  }
  attr {
    key: "_output_shapes"
    value {
      list {
        shape {
        }
      }
    }
  }
  attr {
    key: "keep_dims"
    value {
      b: false
    }
  }
}
node {
  name: "init_ops/report_uninitialized_variables/boolean_mask/Shape_1"
  op: "Const"
  device: "/device:CPU:0"
  attr {
    key: "_output_shapes"
    value {
      list {
        shape {
          dim {
            size: 1
          }
        }
      }
    }
  }
  attr {
    key: "dtype"
    value {
      type: DT_INT32
    }
  }
  attr {
    key: "value"
    value {
      tensor {
        dtype: DT_INT32
        tensor_shape {
          dim {
            size: 1
          }
        }
        int_val: 138
      }
    }
  }
}
node {
  name: "init_ops/report_uninitialized_variables/boolean_mask/strided_slice_1/stack"
  op: "Const"
  device: "/device:CPU:0"
  attr {
    key: "_output_shapes"
    value {
      list {
        shape {
          dim {
            size: 1
          }
        }
      }
    }
  }
  attr {
    key: "dtype"
    value {
      type: DT_INT32
    }
  }
  attr {
    key: "value"
    value {
      tensor {
        dtype: DT_INT32
        tensor_shape {
          dim {
            size: 1
          }
        }
        int_val: 0
      }
    }
  }
}
node {
  name: "init_ops/report_uninitialized_variables/boolean_mask/strided_slice_1/stack_1"
  op: "Const"
  device: "/device:CPU:0"
  attr {
    key: "_output_shapes"
    value {
      list {
        shape {
          dim {
            size: 1
          }
        }
      }
    }
  }
  attr {
    key: "dtype"
    value {
      type: DT_INT32
    }
  }
  attr {
    key: "value"
    value {
      tensor {
        dtype: DT_INT32
        tensor_shape {
          dim {
            size: 1
          }
        }
        int_val: 0
      }
    }
  }
}
node {
  name: "init_ops/report_uninitialized_variables/boolean_mask/strided_slice_1/stack_2"
  op: "Const"
  device: "/device:CPU:0"
  attr {
    key: "_output_shapes"
    value {
      list {
        shape {
          dim {
            size: 1
          }
        }
      }
    }
  }
  attr {
    key: "dtype"
    value {
      type: DT_INT32
    }
  }
  attr {
    key: "value"
    value {
      tensor {
        dtype: DT_INT32
        tensor_shape {
          dim {
            size: 1
          }
        }
        int_val: 1
      }
    }
  }
}
node {
  name: "init_ops/report_uninitialized_variables/boolean_mask/strided_slice_1"
  op: "StridedSlice"
  input: "init_ops/report_uninitialized_variables/boolean_mask/Shape_1"
  input: "init_ops/report_uninitialized_variables/boolean_mask/strided_slice_1/stack"
  input: "init_ops/report_uninitialized_variables/boolean_mask/strided_slice_1/stack_1"
  input: "init_ops/report_uninitialized_variables/boolean_mask/strided_slice_1/stack_2"
  device: "/device:CPU:0"
  attr {
    key: "Index"
    value {
      type: DT_INT32
    }
  }
  attr {
    key: "T"
    value {
      type: DT_INT32
    }
  }
  attr {
    key: "_output_shapes"
    value {
      list {
        shape {
          dim {
          }
        }
      }
    }
  }
  attr {
    key: "begin_mask"
    value {
      i: 1
    }
  }
  attr {
    key: "ellipsis_mask"
    value {
      i: 0
    }
  }
  attr {
    key: "end_mask"
    value {
      i: 0
    }
  }
  attr {
    key: "new_axis_mask"
    value {
      i: 0
    }
  }
  attr {
    key: "shrink_axis_mask"
    value {
      i: 0
    }
  }
}
node {
  name: "init_ops/report_uninitialized_variables/boolean_mask/Shape_2"
  op: "Const"
  device: "/device:CPU:0"
  attr {
    key: "_output_shapes"
    value {
      list {
        shape {
          dim {
            size: 1
          }
        }
      }
    }
  }
  attr {
    key: "dtype"
    value {
      type: DT_INT32
    }
  }
  attr {
    key: "value"
    value {
      tensor {
        dtype: DT_INT32
        tensor_shape {
          dim {
            size: 1
          }
        }
        int_val: 138
      }
    }
  }
}
node {
  name: "init_ops/report_uninitialized_variables/boolean_mask/strided_slice_2/stack"
  op: "Const"
  device: "/device:CPU:0"
  attr {
    key: "_output_shapes"
    value {
      list {
        shape {
          dim {
            size: 1
          }
        }
      }
    }
  }
  attr {
    key: "dtype"
    value {
      type: DT_INT32
    }
  }
  attr {
    key: "value"
    value {
      tensor {
        dtype: DT_INT32
        tensor_shape {
          dim {
            size: 1
          }
        }
        int_val: 1
      }
    }
  }
}
node {
  name: "init_ops/report_uninitialized_variables/boolean_mask/strided_slice_2/stack_1"
  op: "Const"
  device: "/device:CPU:0"
  attr {
    key: "_output_shapes"
    value {
      list {
        shape {
          dim {
            size: 1
          }
        }
      }
    }
  }
  attr {
    key: "dtype"
    value {
      type: DT_INT32
    }
  }
  attr {
    key: "value"
    value {
      tensor {
        dtype: DT_INT32
        tensor_shape {
          dim {
            size: 1
          }
        }
        int_val: 0
      }
    }
  }
}
node {
  name: "init_ops/report_uninitialized_variables/boolean_mask/strided_slice_2/stack_2"
  op: "Const"
  device: "/device:CPU:0"
  attr {
    key: "_output_shapes"
    value {
      list {
        shape {
          dim {
            size: 1
          }
        }
      }
    }
  }
  attr {
    key: "dtype"
    value {
      type: DT_INT32
    }
  }
  attr {
    key: "value"
    value {
      tensor {
        dtype: DT_INT32
        tensor_shape {
          dim {
            size: 1
          }
        }
        int_val: 1
      }
    }
  }
}
node {
  name: "init_ops/report_uninitialized_variables/boolean_mask/strided_slice_2"
  op: "StridedSlice"
  input: "init_ops/report_uninitialized_variables/boolean_mask/Shape_2"
  input: "init_ops/report_uninitialized_variables/boolean_mask/strided_slice_2/stack"
  input: "init_ops/report_uninitialized_variables/boolean_mask/strided_slice_2/stack_1"
  input: "init_ops/report_uninitialized_variables/boolean_mask/strided_slice_2/stack_2"
  device: "/device:CPU:0"
  attr {
    key: "Index"
    value {
      type: DT_INT32
    }
  }
  attr {
    key: "T"
    value {
      type: DT_INT32
    }
  }
  attr {
    key: "_output_shapes"
    value {
      list {
        shape {
          dim {
          }
        }
      }
    }
  }
  attr {
    key: "begin_mask"
    value {
      i: 0
    }
  }
  attr {
    key: "ellipsis_mask"
    value {
      i: 0
    }
  }
  attr {
    key: "end_mask"
    value {
      i: 1
    }
  }
  attr {
    key: "new_axis_mask"
    value {
      i: 0
    }
  }
  attr {
    key: "shrink_axis_mask"
    value {
      i: 0
    }
  }
}
node {
  name: "init_ops/report_uninitialized_variables/boolean_mask/concat/values_1"
  op: "Pack"
  input: "init_ops/report_uninitialized_variables/boolean_mask/Prod"
  device: "/device:CPU:0"
  attr {
    key: "N"
    value {
      i: 1
    }
  }
  attr {
    key: "T"
    value {
      type: DT_INT32
    }
  }
  attr {
    key: "_output_shapes"
    value {
      list {
        shape {
          dim {
            size: 1
          }
        }
      }
    }
  }
  attr {
    key: "axis"
    value {
      i: 0
    }
  }
}
node {
  name: "init_ops/report_uninitialized_variables/boolean_mask/concat/axis"
  op: "Const"
  device: "/device:CPU:0"
  attr {
    key: "_output_shapes"
    value {
      list {
        shape {
        }
      }
    }
  }
  attr {
    key: "dtype"
    value {
      type: DT_INT32
    }
  }
  attr {
    key: "value"
    value {
      tensor {
        dtype: DT_INT32
        tensor_shape {
        }
        int_val: 0
      }
    }
  }
}
node {
  name: "init_ops/report_uninitialized_variables/boolean_mask/concat"
  op: "ConcatV2"
  input: "init_ops/report_uninitialized_variables/boolean_mask/strided_slice_1"
  input: "init_ops/report_uninitialized_variables/boolean_mask/concat/values_1"
  input: "init_ops/report_uninitialized_variables/boolean_mask/strided_slice_2"
  input: "init_ops/report_uninitialized_variables/boolean_mask/concat/axis"
  device: "/device:CPU:0"
  attr {
    key: "N"
    value {
      i: 3
    }
  }
  attr {
    key: "T"
    value {
      type: DT_INT32
    }
  }
  attr {
    key: "Tidx"
    value {
      type: DT_INT32
    }
  }
  attr {
    key: "_output_shapes"
    value {
      list {
        shape {
          dim {
            size: 1
          }
        }
      }
    }
  }
}
node {
  name: "init_ops/report_uninitialized_variables/boolean_mask/Reshape"
  op: "Reshape"
  input: "init_ops/report_uninitialized_variables/Const"
  input: "init_ops/report_uninitialized_variables/boolean_mask/concat"
  device: "/device:CPU:0"
  attr {
    key: "T"
    value {
      type: DT_STRING
    }
  }
  attr {
    key: "Tshape"
    value {
      type: DT_INT32
    }
  }
  attr {
    key: "_output_shapes"
    value {
      list {
        shape {
          dim {
            size: 138
          }
        }
      }
    }
  }
}
node {
  name: "init_ops/report_uninitialized_variables/boolean_mask/Reshape_1/shape"
  op: "Const"
  device: "/device:CPU:0"
  attr {
    key: "_output_shapes"
    value {
      list {
        shape {
          dim {
            size: 1
          }
        }
      }
    }
  }
  attr {
    key: "dtype"
    value {
      type: DT_INT32
    }
  }
  attr {
    key: "value"
    value {
      tensor {
        dtype: DT_INT32
        tensor_shape {
          dim {
            size: 1
          }
        }
        int_val: -1
      }
    }
  }
}
node {
  name: "init_ops/report_uninitialized_variables/boolean_mask/Reshape_1"
  op: "Reshape"
  input: "init_ops/report_uninitialized_variables/LogicalNot"
  input: "init_ops/report_uninitialized_variables/boolean_mask/Reshape_1/shape"
  device: "/device:CPU:0"
  attr {
    key: "T"
    value {
      type: DT_BOOL
    }
  }
  attr {
    key: "Tshape"
    value {
      type: DT_INT32
    }
  }
  attr {
    key: "_output_shapes"
    value {
      list {
        shape {
          dim {
            size: 138
          }
        }
      }
    }
  }
}
node {
  name: "init_ops/report_uninitialized_variables/boolean_mask/Where"
  op: "Where"
  input: "init_ops/report_uninitialized_variables/boolean_mask/Reshape_1"
  device: "/device:CPU:0"
  attr {
    key: "T"
    value {
      type: DT_BOOL
    }
  }
  attr {
    key: "_output_shapes"
    value {
      list {
        shape {
          dim {
            size: -1
          }
          dim {
            size: 1
          }
        }
      }
    }
  }
}
node {
  name: "init_ops/report_uninitialized_variables/boolean_mask/Squeeze"
  op: "Squeeze"
  input: "init_ops/report_uninitialized_variables/boolean_mask/Where"
  device: "/device:CPU:0"
  attr {
    key: "T"
    value {
      type: DT_INT64
    }
  }
  attr {
    key: "_output_shapes"
    value {
      list {
        shape {
          dim {
            size: -1
          }
        }
      }
    }
  }
  attr {
    key: "squeeze_dims"
    value {
      list {
        i: 1
      }
    }
  }
}
node {
  name: "init_ops/report_uninitialized_variables/boolean_mask/Gather"
  op: "Gather"
  input: "init_ops/report_uninitialized_variables/boolean_mask/Reshape"
  input: "init_ops/report_uninitialized_variables/boolean_mask/Squeeze"
  device: "/device:CPU:0"
  attr {
    key: "Tindices"
    value {
      type: DT_INT64
    }
  }
  attr {
    key: "Tparams"
    value {
      type: DT_STRING
    }
  }
  attr {
    key: "_output_shapes"
    value {
      list {
        shape {
          dim {
            size: -1
          }
        }
      }
    }
  }
  attr {
    key: "validate_indices"
    value {
      b: true
    }
  }
}
node {
  name: "init_ops/init_1"
  op: "NoOp"
}
node {
  name: "init_ops/init_all_tables"
  op: "NoOp"
}
node {
  name: "init_ops/group_deps"
  op: "NoOp"
  input: "^init_ops/init_1"
  input: "^init_ops/init_all_tables"
}
node {
  name: "Merge/MergeSummary"
  op: "MergeSummary"
  input: "parallel_read/filenames/fraction_of_32_full"
  input: "parallel_read/fraction_of_32_full"
  input: "distort_image/image_with_bounding_boxes"
  input: "distort_image/images_with_distorted_bounding_box"
  input: "distort_image/cropped_resized_image"
  input: "distort_image/final_distorted_image"
  input: "batch/fraction_of_80_full"
  input: "losses/total_loss"
  input: "training/learning_rate"
  input: "training/accuracy"
  attr {
    key: "N"
    value {
      i: 10
    }
  }
  attr {
    key: "_output_shapes"
    value {
      list {
        shape {
        }
      }
    }
  }
}
node {
  name: "train_step/Const"
  op: "Const"
  attr {
    key: "_output_shapes"
    value {
      list {
        shape {
        }
      }
    }
  }
  attr {
    key: "dtype"
    value {
      type: DT_BOOL
    }
  }
  attr {
    key: "value"
    value {
      tensor {
        dtype: DT_BOOL
        tensor_shape {
        }
        bool_val: false
      }
    }
  }
}
node {
  name: "train_step/FloorMod/y"
  op: "Const"
  attr {
    key: "_output_shapes"
    value {
      list {
        shape {
        }
      }
    }
  }
  attr {
    key: "dtype"
    value {
      type: DT_INT64
    }
  }
  attr {
    key: "value"
    value {
      tensor {
        dtype: DT_INT64
        tensor_shape {
        }
        int64_val: 10
      }
    }
  }
}
node {
  name: "train_step/FloorMod"
  op: "FloorMod"
  input: "global_step/read"
  input: "train_step/FloorMod/y"
  attr {
    key: "T"
    value {
      type: DT_INT64
    }
  }
  attr {
    key: "_output_shapes"
    value {
      list {
        shape {
        }
      }
    }
  }
}
node {
  name: "train_step/Equal/y"
  op: "Const"
  attr {
    key: "_output_shapes"
    value {
      list {
        shape {
        }
      }
    }
  }
  attr {
    key: "dtype"
    value {
      type: DT_INT64
    }
  }
  attr {
    key: "value"
    value {
      tensor {
        dtype: DT_INT64
        tensor_shape {
        }
        int64_val: 0
      }
    }
  }
}
node {
  name: "train_step/Equal"
  op: "Equal"
  input: "train_step/FloorMod"
  input: "train_step/Equal/y"
  attr {
    key: "T"
    value {
      type: DT_INT64
    }
  }
  attr {
    key: "_output_shapes"
    value {
      list {
        shape {
        }
      }
    }
  }
}
versions {
  producer: 26
}
